assignment1/notebooks/Q1/model_best.pth (torch, 720427 bytes, 51 tensors)

conv.weight f4 [16, 3, 3, 3]
0.043544453 0.04325544 -0.0804019 0.07852568 -0.08948335 -0.0075054397 -0.09796934 0.041287508
0.0993596 -0.18472122 0.033290762 -0.03872008 0.04486103 -0.044423502 0.027619923 -0.06178014
0.05865639 -0.0070893997 -0.024081672 0.07885884 0.0013819509 0.06206923 0.027871704 0.20130141
-0.020974863 0.02890129 0.07646886 -0.06867909 0.011852231 -0.22886977 0.16662772 0.023644177
0.13100298 0.057312824 -0.039410572 0.07674126 0.19136304 0.25414374 0.0067110215 0.07297547
0.27663162 0.0610646 0.051305164 0.13873863 0.105115525 0.316844 0.40364617 0.23474783
0.31182045 0.22507206 0.0639562 0.083732955 0.0053192144 0.25299224 0.06747664 0.10167575
0.028053243 0.03113386 0.20938809 -0.050821684 -0.054769404 -0.09553303 0.08562998 0.0132689085
0.10142269 -0.075568855 0.17971705 0.04431586 -0.050589066 -0.12291849 0.17565498 0.11323555
0.21884094 -0.032140393 -0.1527206 -0.028586462 0.05317078 0.1265269 0.03848507 0.1810957
0.0279113 -0.13364781 0.03817733 -0.08303993 0.051721532 -0.07953953 0.045558054 -0.14062512
-0.115878955 0.004764413 -0.02481601 -0.08876891 0.042115305 0.049508803 -0.16103223 -0.12302007
0.08451097 -0.10604072 -0.1011876 -0.11970756 -0.060569607 0.06558693 0.005618592 -0.08733264
0.02827548 -0.0718172 -0.105256446 -0.056634676 0.5607238 0.24807145 0.88136923 0.4036379
-0.02670719 0.6351109 -0.018051103 -0.3647457 0.48562375 -0.16671354 -0.6287495 -0.29722515
-0.40317017 -1.0630269 -0.19725315 -0.4887414 -0.97823876 -0.14775299 0.23097855 -0.111788556
0.39053163 -0.05532599 -0.27340484 0.39867386 -0.18421549 -0.21616696 0.40010008 -0.25240767
-0.2506107 -0.42249462 -0.03786979 -0.004419481 -0.19502111 -0.3294095 -0.13423781 -0.407846
0.32971564 0.519352 0.3211186 0.55871385 0.7844771 0.20307158 0.23474157 0.21987031
0.17140858 -0.36977255 -0.03538876 -0.4483304 -0.15108742 -0.02016661 -0.31635794 -0.44201127
-0.21783073 -0.4079405 0.1621442 -0.07869712 -0.13825841 0.09843443 0.16839378 -0.040090255
0.069903985 0.21563269 -0.0404153 0.21873233 0.18277492 -0.22123665 0.07957827 0.19327466
-0.32987505 0.06205702 0.35862523 -0.21293563 0.0804211 0.039027587 -0.23081523 -0.049030732
0.18169573 -0.20695668 -0.09163905 0.055059236 -0.20635758 -0.04916966 -0.124848 -0.14882545
0.01673655 0.009082998 -0.13990094 -0.10076476 -0.10959167 -0.12332616 -0.0021475798 -0.022790994
-0.19866048 -0.08658838 0.057514623 -0.019136358 -0.050101884 -0.15704195 -0.15721975 -0.12967244
-0.06451805 0.023641175 0.10419514 0.06000314 -0.14040174 -0.07031026 -0.0307252 0.13349265
0.3464281 0.16327746 0.37108457 0.19611134 -0.2200582 0.066883236 0.10180279 -0.15625627
-0.30150178 0.34333462 0.21906866 0.33718637 0.11307033 -0.35855556 -0.16118059 0.4537287
0.050074298 0.11240375 0.01642349 -0.1070307 0.0058854935 -0.17777418 -0.53993493 -0.3900126
0.18029119 -0.2242457 -0.16370656 -0.04978186 0.018931082 0.03165035 -0.09024659 -0.01717747
-0.017394982 0.13448603 -0.085759066 -0.11362139 -0.10709822 -0.16067979 -0.05638375 -0.23287542
00000000: ab5b 323d 9e2c 313d c0a9 a4bd 12d2 a03d
00000010: 0c43 b7bd 31f0 f5bb 26a4 c8bd 171d 293d
00000020: 0c7d cb3d 8f27 3dbe e55b 083d f298 1ebd
00000030: 33c0 373d 6bf5 35bd 2d43 e23c 2c0d 7dbd
00000040: af41 703d 324e e8bb ed46 c5bc be80 a13d
00000050: 9422 b53a 4e3c 7e3d 3353 e43c f521 4e3e
00000060: 7ad3 abbc 66c2 ec3c b59b 9c3d 9fa7 8cbd
00000070: dc2f 423c d65c 6abe 75a0 2a3e 6fb1 c13c
00000080: a525 063e dac0 6a3d fb6c 21bd 862a 9d3d
00000090: acf4 433e 211f 823e 21e8 db3b 2a74 953d
000000a0: a9a2 8d3e e01e 7a3d 5d25 523d 8011 0e3e
000000b0: cf46 d73d 6039 a23e b6aa ce3e bc61 703e
000000c0: eea6 9f3e 4a79 663e 78fb 823d 2f7c ab3d
000000d0: ce4c ae3b 3388 813e 3131 8a3d 603b d03d
000000e0: eacf e53c 700c ff3c d569 563e 662a 50bd
000000f0: e255 60bd d2a6 c3bd c55e af3d d665 593c
00000100: b3b6 cf3d d8c3 9abd bf07 383e 8c84 353d
00000110: 7b36 4fbd b0bc fbbd e6de 333e 0ae8 e73d
00000120: d717 603e a5a5 03bd ca62 1cbe 282e eabc
00000130: 9bc9 593d 4590 013e 85a2 1d3d 2771 393e
00000140: 3da6 e43c f9da 08be d55f 1c3d d710 aabd
00000150: f5d9 533d 9fe5 a2bd 159b 3a3d 0800 10be
00000160: f251 edbd cb1e 9c3b f24a cbbc 79cc b5bd
00000170: 1981 2c3d bec9 4a3d a2e5 24be f2f1 fbbd
00000180: 1614 ad3d e12b d9bd 723b cfbd 3d29 f5bd
00000190: d617 78bd 7152 863d 2a1c b83b 75db b2bd
000001a0: fba1 e73c e514 93bd b190 d7bd c3f9 67bd
000001b0: 988b 0f3f 7106 7e3e 6aa1 613f a0a9 ce3e
000001c0: 09c9 dabc a196 223f e8df 93bc f3bf babe
000001d0: ada3 f83e f4b6 2abe baf5 20bf e52d 98be
000001e0: 526c cebe 4411 88bf bbfc 49be 503c fabe
000001f0: db6d 7abf 8f4c 17be a485 6c3e 66f1 e4bd
00000200: c3f3 c73e 819d 62bd b8fb 8bbe fb1e cc3e
00000210: fca2 3cbe df5a 5dbe ebd9 cc3e 943b 81be
00000220: 0c50 80be 3751 d8be 5a1d 1bbd 4bd1 90bb
00000230: 9db3 47be 5da8 a8be a375 09be 31d1 d0be
00000240: 7dd0 a83e 41f4 043f a869 a43e df07 0f3f
00000250: 7ed3 483f fff1 4f3e 1860 703e af25 613e
00000260: bb85 2f3e d452 bdbe cef3 10bd 908b e5be
00000270: a9b6 1abe 7234 a5bc abf9 a1be 4d4f e2be
00000280: 050f 5fbe 94dd d0be 2109 263e f52b a1bd
00000290: 9d93 0dbe fe97 c93d 6b6f 2c3e ae35 24bd
000002a0: d229 8f3d d1ce 5c3e 838a 25bd 5efb 5f3e
000002b0: 5929 3b3e dc8b 62be eff9 a23d cbe9 453e
000002c0: 62e5 a8be 802f 7e3d ba9d b73e cc0b 5abe
000002d0: d1b3 a43d 64db 1f3d d45a 6cbe 73d4 48bd
000002e0: 720e 3a3e 74ec 53be 41ad bbbd cb85 613d
000002f0: 674f 53be 2066 49bd 4fb0 ffbd b365 18be
00000300: 171b 893c dbd0 143c 3142 0fbe c15d cebd
00000310: 9971 e0bd 6d92 fcbd 69be 0cbb 2eb4 babc
00000320: a76d 4bbe 4055 b1bd 7494 6b3d dac3 9cbc
00000330: a237 4dbd 9bcf 20be 37fe 20be dac8 04be
00000340: 0a22 84bd 23ab c13c 4364 d53d dac5 753d
00000350: 79c5 0fbe d3fe 8fbd 6ab3 fbbc 4cb2 083e
00000360: 065f b13e 3532 273e ccfe bd3e 69d1 483e
00000370: f056 61be 14fa 883d fb7d d03d a501 20be
00000380: 715e 9abe 8ec9 af3e 8953 603e b1a3 ac3e
00000390: 6b91 e73d 9894 b7be 860c 25be 214f e83e
000003a0: b51a 4d3d f033 e63d 8e8a 863c e932 dbbd
000003b0: 19db c03b 6f0a 36be 2d39 0abf bbaf c7be
000003c0: 419e 383e aaa0 65be b1a2 27be 10e8 4bbd
000003d0: 5b15 9b3c cca3 013d 34d3 b8bd c4b7 8cbc
000003e0: ec7f 8ebc b5b6 093e 73a2 afbd 55b2 e8bd
000003f0: 5056 dbbd 3e89 24be a6f2 66bd e576 6ebe

bn.weight f4 [1, 16, 1, 1]
0.7564713 0.63318413 0.5280927 0.72704065 1.185362 0.91973263 0.5036565 0.7515711
0.8773141 0.9318344 1.1574672 0.96969014 0.7392453 0.82116205 1.2497317 0.7228076
00000000: 1aa8 413f 5b18 223f 1531 073f 561f 3a3f
00000010: f1b9 973f 9973 6b3f a2ef 003f f766 403f
00000020: a897 603f b38c 6e3f e327 943f 9d3d 783f
00000030: 2e3f 3d3f ad37 523f 35f7 9f3f eb09 393f

bn.bias f4 [1, 16, 1, 1]
-0.05298601 -0.005047843 -0.09981769 -0.038817953 0.22056055 0.21384926 -0.023269666 0.08662977
0.009450663 0.26946908 0.2971394 0.25912362 0.5766817 0.20589593 0.017737782 0.16826645
00000000: dc07 59bd 6068 a5bb 386d ccbd 93ff 1ebd
00000010: a0da 613e 4dfb 5a3e 07a0 bebc f36a b13d
00000020: f4d6 1a3c daf7 893e a822 983e daab 843e
00000030: 69a1 133f 62d6 523e d34e 913c 0a4e 2c3e

layer1.0.conv1.weight f4 [16, 16, 3, 3]
-0.014469279 0.025449062 -0.058162864 0.050695047 -0.019284528 -0.0069009704 0.017155634 0.023288101
-0.013449197 0.045766063 -0.0021236625 0.044173677 0.060769416 -0.030059734 -0.04707778 0.048176743
0.043356363 -0.051815964 -0.019627899 -0.07893697 -0.0899065 -0.011353682 -0.006333439 -0.02592196
-0.047353342 0.03117266 -0.027464453 -0.03631874 -0.0046742447 0.014168391 0.013847482 -0.04688962
0.020980451 -0.036491953 -0.054878924 -0.03514323 0.030214641 0.028243873 0.037478782 -0.0020276096
0.010834992 -0.033101313 -0.07162193 -0.005536708 -0.05373082 -0.06233038 -0.04445728 -0.022688387
0.015427635 -0.03434873 -0.058554225 -0.0068612746 -0.050020766 -0.066430286 -0.00819401 -0.037882846
0.03491362 0.02512848 -0.014748716 -0.023166936 -0.012320976 -0.028235171 -0.033077706 -0.028193956
-0.012344385 0.002894977 -0.021165311 -0.018956644 -0.03334397 -0.020010542 0.017742304 0.028093668
-0.0020915966 -0.014266255 -0.08387186 -0.1087407 -0.09572282 -0.091559425 -0.06623791 -0.12593378
-0.04399403 -0.07359656 -0.06913477 -0.1018217 0.051444583 -0.05971929 0.016143061 -0.012063822
-0.026076367 -0.00031342328 0.0043666 0.047403634 0.05527874 -0.047390494 0.027802791 0.018741844
0.020684171 0.01624444 0.026910597 -0.042938348 -0.02953836 0.046487126 0.020156631 -0.027484847
-0.074928276 -0.015800597 -0.06255367 0.036252186 -0.07607003 -0.05419544 -0.051303554 -0.031485435
0.003422489 -0.034187034 0.0077207503 0.0084253205 0.025258508 -0.06539604 -0.05775684 -0.0062080873
-0.07129158 -0.02707745 -0.06433846 -0.09089409 -0.022097254 -0.033392724 -0.019711563 0.023327766
0.022219494 0.027746776 -0.030102752 -0.07558244 -0.0710109 -0.070492506 -0.08030653 -0.03538784
-0.06033138 -0.06401118 -0.039298456 -0.06431188 -0.044957045 0.021031868 0.047978662 -0.024587486
0.017600415 0.07710261 0.007902494 -0.0075259064 0.06716346 -0.03149226 -0.0043394826 0.054888427
0.011561674 0.02770494 -0.060223307 -0.012888607 -0.035845198 -0.070190996 -0.05185729 0.049976107
-0.10837443 -0.066959 0.042603455 -0.021309668 0.03539605 0.027626177 0.057525415 0.024532858
0.107955806 0.10019474 -0.008661916 -0.010605801 -0.0006416821 -0.04336361 -0.023357373 0.0020439166
0.055430822 0.06753605 0.045636322 -0.03077762 -0.10545153 0.18052343 0.12008036 -0.10338017
0.12910976 0.0741357 -0.08620249 0.19002981 0.15078767 0.13202333 0.055293538 0.06577486
0.040141568 -0.046141323 -0.012876475 0.14343119 0.02118441 0.10234294 0.05216152 -0.021891687
0.017946925 0.12684755 -0.03433668 -0.075150795 0.03700307 -0.018682245 -0.095778115 -0.05645099
-0.014340839 -0.07973431 -0.00033437336 -0.015644332 -0.11522452 -0.036292646 0.00013400057 -0.035147756
0.11413666 0.059328243 0.01786745 0.12547338 0.21690287 0.044650257 0.13303907 0.1812104
0.03759181 -0.09913234 -0.08067213 -0.048186287 -0.094826005 -0.03860992 -0.13385376 0.019058023
0.013077191 -0.017240182 0.10476691 0.111660324 0.14177231 0.024442697 0.096532755 0.13231684
0.07403976 0.06683091 -0.002099302 0.10536327 0.13084376 0.26632738 -0.16782588 -0.06362771
0.15711276 -0.057935946 -0.0942786 0.10782831 -0.03012797 0.08324867 -0.046640556 0.018556366
00000000: 8e10 6dbc 8d7a d03c 2f3c 6ebd 9ca5 4f3d
00000010: 96fa 9dbc 8921 e2bb f989 8c3c b0c6 be3c
00000020: 055a 5cbc 3275 3b3d 252d 0bbb 75ef 343d
00000030: 5ae9 783d d53f f6bc a1d4 40bd fa54 453d
00000040: 7196 313d fa3c 54bd b0ca a0bc b5a9 a1bd
00000050: e620 b8bd cb04 3abc bd88 cfbb 4a5a d4bc
00000060: 94f5 41bd ce5d ff3c 22fd e0bc f6c2 14bd
00000070: 682a 99bb 8a22 683c 8de0 623c 550f 40bd
00000080: 32df ab3c 9678 15bd b9c8 60bd 59f2 0fbd
00000090: b284 f73c b25f e73c 5a83 193d a5e1 04bb
000000a0: 4085 313c 3e95 07bd 85ae 92bd 466d b5bb
000000b0: d914 5cbd 244e 7fbd d618 36bd ffdc b9bc
000000c0: 31c4 7c3c 41b1 0cbd 8ed6 6fbd 8bd4 e0bb
000000d0: 93e2 4cbd 9a0c 88bd 2b40 06bc 0b2b 1bbd
000000e0: 9601 0f3d 3eda cd3c 99a4 71bc 96c8 bdbc
000000f0: ebdd 49bc 724d e7bc 7d7c 07bd 03f7 e6bc
00000100: 1a40 4abc a8b9 3d3b e062 adbc f74a 9bbc
00000110: b093 08bd 26ed a3bc 4f58 913c b124 e63c
00000120: 2b13 09bb 03bd 69bc 02c5 abbd 72b3 debd
00000130: 530a c4bd 8283 bbbd bea7 87bd c9f4 00be
00000140: 1633 34bd cbb9 96bd 8896 8dbd e587 d0bd
00000150: 8eb7 523d 379c 74bd 743e 843c 56a7 45bc
00000160: 1b9e d5bc f652 a4b9 b215 8f3b 502a 423d
00000170: f66b 623d 891c 42bd aec2 e33c 7f88 993c
00000180: da71 a93c 0f13 853c 9d73 dc3c 1fe0 2fbd
00000190: 6efa f1bc 4969 3e3d 851f a53c e727 e1bc
000001a0: ff73 99bd 4170 81bc 231c 80bd 2c7d 143d
000001b0: 9bca 9bbd 0afc 5dbd ad23 52bd dff6 00bd
000001c0: d64b 603b b407 0cbd 59fe fc3b 5b0a 0a3c
000001d0: eeea ce3c 5cee 85bd 7092 6cbd 366d cbbb
000001e0: 5201 92bd 87d1 ddbc e2c3 83bd ae26 babd
000001f0: 4d05 b5bc cfc6 08bd 257a a1bc df19 bf3c
00000200: a805 b63c 354d e33c 0c9a f6bc f7ca 9abd
00000210: 2a6e 91bd 605e 90bd c077 a4bd d7f2 10bd
00000220: 0a1e 77bd 4b18 83bd 6bf7 20bd f2b5 83bd
00000230: e124 38bd 064b ac3c 4685 443d b26b c9bc
00000240: bf2e 903c f9e7 9d3d 7679 013c e19b f6bb
00000250: ff8c 893d 07fe 00bd 3832 8ebb b0d2 603d
00000260: 2d6d 3d3c 78f5 e23c b7ac 76bd bc2a 53bc
00000270: 6ad2 12bd 4cc0 8fbd 4f68 54bd bfb3 4c3d
00000280: 6af3 ddbd cd21 89bd f680 2e3d 9d91 aebc
00000290: 73fb 103d 4b50 e23c c59f 6b3d 22f9 c83c
000002a0: ef17 dd3d e632 cd3d b5ea 0dbc f4c3 2dbc
000002b0: 8f36 28ba 0a9e 31bd f657 bfbc 3bf3 053b
000002c0: 6e0b 633d 5750 8a3d 27ed 3a3d 5921 fcbc
000002d0: f9f6 d7bd 22db 383e b1ec f53d fcb8 d3bd
000002e0: 5935 043e 75d4 973d ee8a b0bd 2d97 423e
000002f0: 1568 1a3e 2031 073e 7a7b 623d f8b4 863d
00000300: 7c6b 243d affe 3cbd daf7 52bc a0df 123e
00000310: ee8a ad3c 2d99 d13d 51a7 553d 3256 b3bc
00000320: 6e05 933c 53e4 013e 9ea4 0cbd a9e8 99bd
00000330: 8890 173d 820b 99bc 5127 c4bd 2739 67bd
00000340: d7f5 6abc be4b a3bd d54e afb9 8b28 80bc
00000350: d5fa ebbd 99a7 14bd 8182 0c39 18f7 0fbd
00000360: 7bc0 e93d 2c02 733d c25e 923c 187c 003e
00000370: c91b 5e3e 30e3 363d 653b 083e 388f 393e
00000380: dff9 193d e505 cbbd 6e37 a5bd fc5e 45bd
00000390: 2334 c2bd 6f25 1ebd f610 09be 921f 9c3c
000003a0: b741 563c 483b 8dbc 0990 d63d 2bae e43d
000003b0: c32c 113e 0d3c c83c f7b2 c53d 117e 073e
000003c0: 28a2 973d a5de 883d 7194 09bb b3c8 d73d
000003d0: e8fb 053e 105c 883e 8cda 2bbe 3f4f 82bd
000003e0: 2be2 203e 3e4e 6dbd 2315 c1bd 17d5 dc3d
000003f0: efce f6bc 477e aa3d 2b0a 3fbd 8503 983c

layer1.0.bn1.weight f4 [1, 16, 1, 1]
0.73085076 0.68666303 0.6173776 0.6365061 0.62902766 0.8618717 0.778661 1.1450895
0.5686466 0.79404974 0.7251053 0.7468637 0.83750767 0.614866 0.7269658 0.9398042
00000000: 0919 3b3f 26c9 2f3f 750c 1e3f 10f2 223f
00000010: f507 213f a0a3 5c3f 5456 473f 4b92 923f
00000020: d392 113f d846 4b3f 80a0 393f 7632 3f3f
00000030: e766 563f dc67 1d3f 6e1a 3a3f 0297 703f

layer1.0.bn1.bias f4 [1, 16, 1, 1]
-0.0005223346 0.0357915 -0.10763761 -0.22111924 -0.10677104 0.0024491586 0.015445246 -0.00076906686
-0.12558685 0.0023067067 -0.06871815 -0.2619602 -0.19046627 -0.22881855 -0.0055030207 0.11394503
00000000: 48ed 08ba 1c9a 123d 1b71 dcbd 156d 62be
00000010: c6aa dabd 1082 203b 0f0e 7d3c 349b 49ba
00000020: d799 00be 1e2c 173b 1abc 8cbd a61f 86be
00000030: 9709 43be 694f 6abe af52 b4bb 035c e93d

layer1.0.conv2.weight f4 [16, 16, 3, 3]
0.06348569 0.064018935 0.060817786 -0.00034008393 0.026359687 -0.021781325 -0.010151202 0.028966552
0.0385423 -0.028448137 -0.15698871 0.0032516576 -0.08317349 -0.040480264 0.007972859 -0.020522933
-0.013939513 0.011787783 0.065354355 -0.0024726067 0.030001324 0.031770363 0.04642029 -0.031106915
0.064687654 0.06748956 -0.051488724 0.14842518 0.06625289 0.06299005 0.037794173 0.10972065
0.051876765 0.03842692 0.03512216 0.09614479 -0.15458582 -0.14590444 -0.117938094 -0.06751914
-0.12181029 -0.07957151 -0.09017479 -0.12711349 -0.10163619 -0.024098359 0.046934847 -0.03182019
0.014155219 0.051411662 -0.030939175 0.07687969 0.0023433547 0.011848786 -0.04432885 -0.03432828
-0.0323974 -0.06302041 0.008668722 -0.012016773 0.0516276 0.034053005 0.048753053 0.018497897
-0.059281353 0.04774106 0.05175654 -0.12842837 -0.008119075 -0.054299127 -0.064925596 0.021044616
-0.0719981 -0.118913576 -0.111220054 -0.17351364 -0.1807451 -0.11031136 -0.14668834 -0.15754293
-0.07991264 -0.055700358 -0.04980781 0.017813494 -0.0016248985 -0.053465724 -0.002151418 0.010406584
-0.06986475 -0.00094130007 0.005927696 -0.011995212 0.052754346 -0.047895443 0.022763276 -0.038183115
-0.06099268 0.02911745 -0.036814712 0.086264156 0.06466896 -0.023032812 0.038704302 0.075983904
0.100404285 0.09834989 0.11851304 0.10294384 0.0010607493 -0.06776398 0.05378598 -0.01645379
-0.049166497 0.014677478 -0.06347182 -0.012952003 -0.027215982 0.05079629 0.0575017 0.045314167
0.09762832 0.023282817 0.01451102 0.09720335 0.0762125 0.030692032 0.057200126 0.0073839785
-0.045424588 0.024840685 0.026286524 -0.033196025 0.028999235 -0.037792236 0.020403452 0.1261578
0.06765712 -0.013642729 0.085541055 0.072613165 0.025280403 0.12615243 0.053131945 0.025225382
-0.02841629 -0.047276564 -0.06901894 -0.060409505 -0.047371067 0.050280564 0.0070568114 -0.05356586
-0.03834773 0.1830644 0.039838973 0.008649313 0.13457496 -0.0010447314 0.00050503714 0.17291655
0.09839433 0.066642754 0.18124878 0.073916584 -0.04592864 0.061618764 0.04682842 -0.069954015
-0.113778256 -0.03871006 -0.15893482 0.03920198 0.06060047 0.09565139 0.012051534 0.06537467
0.05874684 -0.0504515 -0.032170966 0.050846804 0.1362903 0.2367211 0.117159195 0.15609284
0.19198772 0.109092355 0.13684927 0.121989764 -0.055939242 -0.013176803 0.014800092 0.027115533
0.10365566 0.116517685 0.034263898 0.06998671 0.049113903 0.118507594 -0.11040301 -0.09066954
-0.028303578 -0.003362159 -0.03277424 -0.060980108 -0.04591727 0.062037904 -0.05837154 0.07432407
-0.15245742 -0.08176515 0.14542747 -0.17787313 -0.16996646 0.19508293 -0.0077619734 -0.07958397
0.24193233 0.13592124 0.0015366464 0.20275491 0.049585693 -0.02384081 0.13516508 0.081151985
0.0045347065 -0.031539988 0.029132355 0.05047275 0.058408536 0.021535624 0.053879872 0.029738884
0.032507442 0.055793412 0.049229108 -0.034442697 0.00345995 -0.010303412 -0.032371424 0.0043194
0.005936039 0.0022987633 0.05159766 -0.055662375 -0.08105079 -0.122294486 -0.02532242 -0.014923831
-0.17337921 0.08095681 0.19722061 0.079509385 -0.09075437 -0.05170423 -0.106536396 -0.06418453
00000000: c904 823d 5c1c 833d 121c 793d 4b4d b2b9
00000010: 45f0 d73c c06e b2bc 3a51 26bc 434b ed3c
00000020: 88de 1d3d 110c e9bc a6c1 20be c319 553b
00000030: dd56 aabd a2ce 25bd 98a0 023c b61f a8bc
00000040: 8e62 64bc 8c21 413c 81d8 853d 750b 22bb
00000050: 56c5 f53c a421 023d 3423 3e3d eed3 febc
00000060: f67a 843d f737 8a3d d7e5 52bd c5fc 173e
00000070: 98af 873d ed00 813d 10ce 1a3d 38b5 e03d
00000080: bb7c 543d 8c65 1d3d 41dc 0f3d 8fe7 c43d
00000090: bf4b 1ebe f967 15be 8789 f1bd 7a47 8abd
000000a0: ac77 f9bd 63f6 a2bd 8fad b8bd 0a2a 02be
000000b0: a326 d0bd ec69 c5bc c13e 403d e355 02bd
000000c0: 4beb 673c 0995 523d 2774 fdbc 1973 9d3d
000000d0: f892 193b 6921 423c 2b92 35bd cf9b 0cbd
000000e0: 23b3 04bd d810 81bd 4107 0e3c 00e2 44bc
000000f0: 7677 533d 2a7b 0b3d 48b1 473d e788 973c
00000100: 01d1 72bd 218c 433d aafe 533d ba82 03be
00000110: de05 05bc c368 5ebd b6f7 84bd c265 ac3c
00000120: bd73 93bd f688 f3bd 57c7 e3bd 8fad 31be
00000130: 3e15 39be ecea e1bd 7835 16be ef52 21be
00000140: 3da9 a3bd 0f26 64bd 4603 4cbd 9bed 913c
00000150: 8cfa d4ba e0fe 5abd cefe 0cbb 6080 2a3c
00000160: 4015 8fbd 94c1 76ba 1e3d c23b 9187 44bc
00000170: f114 583d 032e 44bd 0d7a ba3c e665 1cbd
00000180: 76d3 79bd b887 ee3c 06cb 16bd 43ab b03d
00000190: 2971 843d 4faf bcbc 6788 1e3d 739d 9b3d
000001a0: c3a0 cd3d ab6b c93d f7b6 f23d 38d4 d23d
000001b0: d708 8b3a d7c7 8abd b04e 5c3d 19ca 86bc
000001c0: cf62 49bd ce79 703c 83fd 81bd a334 54bc
000001d0: 0df4 debc c50f 503d e786 6b3d 599b 393d
000001e0: 5bf1 c73d 9bbb be3c a1bf 6d3c 8d12 c73d
000001f0: 4d15 9c3d db6d fb3c ae4a 6a3d 4df5 f13b
00000200: 220f 3abd b17e cb3c d656 d73c 8ef8 07bd
00000210: ce8f ed3c 08cc 1abd 2425 a73c 832f 013e
00000220: d18f 8a3d c185 5fbc 2630 af3d 36b6 943d
00000230: d918 cf3c 1a2e 013e e2a0 593d 76a5 ce3c
00000240: 48c9 e8bc 12a5 41bd cd59 8dbd f56f 77bd
00000250: 2a08 42bd fef2 4d3d d33c e73b e067 5bbd
00000260: 8212 1dbd 3c75 3b3e 312e 233d d9b5 0d3c
00000270: 05ce 093e 5eef 88ba 7864 043a 0911 313e
00000280: f782 c93d ff7b 883d 4899 393e 9461 973d
00000290: ab1f 3cbd f563 7c3d 28cf 3f3d 0d44 8fbd
000002a0: 9304 e9bd 718e 1ebd cfbf 22be 4192 203d
000002b0: 3338 783d e0e4 c33d cc73 453c 28e3 853d
000002c0: 87a0 703d 3ba6 4ebd b4c5 03bd bd44 503d
000002d0: af8f 0b3e 0467 723e 29f1 ef3d cdd6 1f3e
000002e0: 6e98 443e d06b df3d 3722 0c3e c5d5 f93d
000002f0: 8c20 65bd 84e3 57bc 167c 723c 6521 de3c
00000300: 6b49 d43d d3a0 ee3d 4d58 0c3d 3155 8f3d
00000310: a92b 493d 1cb4 f23d f91a e2bd f4b0 b9bd
00000320: e8dc e7bc ab57 5cbb 483e 06bd 47c6 79bd
00000330: bf13 3cbd 751b 7e3d ff16 6fbd 3837 983d
00000340: cc1d 1cbe 7d74 a7bd f0ea 143e 6024 36be
00000350: b00b 2ebe d2c3 473e 2758 febb ecfc a2bd
00000360: 1cbd 773e f02e 0b3e 4c69 c93a fc9e 4f3e
00000370: 5e1a 4b3d cd4d c3bc b768 0a3e 0333 a63d
00000380: e097 943b 1330 01bd faa6 ee3c 84bc 4e3d
00000390: ca3d 6f3d 7a6b b03c 24b1 5c3d f69e f33c
000003a0: 8626 053d a287 643d 76a4 493d c913 0dbd
000003b0: 54c0 623b a4cf 28bc e697 04bd c189 8d3b
000003c0: 1b83 c23b d9a6 163b 1158 533d 3bfe 63bd
000003d0: f5fd a5bd 8875 fabd f770 cfbc 1683 74bc
000003e0: 528a 31be afcc a53d 33f4 493e d1d5 a23d
000003f0: 6ddd b9bd d1c7 53bd c12f dabd 2e73 83bd

layer1.0.bn2.weight f4 [1, 16, 1, 1]
0.7932278 0.50857097 0.57481694 0.8137742 0.58589 0.53826237 1.0918152 0.9790025
0.83881843 0.7660801 0.7081701 0.7823825 0.527994 0.54088223 0.78499436 0.77175444
00000000: fa10 4b3f b531 023f 3427 133f 8253 503f
00000010: e3fc 153f 90cb 093f 9ac0 8b3f e89f 7a3f
00000020: cebc 563f d31d 443f a34a 353f 384a 483f
00000030: 9d2a 073f 4277 0a3f 64f5 483f b391 453f

layer1.0.bn2.bias f4 [1, 16, 1, 1]
0.08094899 -0.018173117 -0.023030665 0.027845189 0.06731548 -0.11915322 0.06073806 0.09122971
-0.056235217 -0.16797939 -0.22682537 -0.057651583 0.16453642 -0.01771772 0.06776911 -0.13695122
00000000: 96c8 a53d cadf 94bc ceaa bcbc 981b e43c
00000010: b3dc 893d 9a06 f4bd 79c8 783d a4d6 ba3d
00000020: e656 66bd ca02 2cbe e944 68be 1124 6cbd
00000030: 3c7c 283e c024 91bc 88ca 8a3d f13c 0cbe

layer1.1.conv1.weight f4 [16, 16, 3, 3]
-0.017762043 0.079952665 -0.02694629 0.079667784 0.0647187 0.07797475 0.06037303 0.08748574
0.08816799 0.082321994 0.112060964 0.119961716 0.1379705 0.09857742 0.06783325 -0.01085808
0.00043977934 0.038628962 0.110576876 0.11673915 0.078367405 0.123949975 0.06268941 0.16056463
0.07744008 0.080574445 0.081277326 0.074912935 0.14696664 0.07789079 0.06875305 0.03552348
0.070793584 0.050948374 0.104038656 0.096168235 0.027199805 0.080132626 0.07983344 -0.09893183
-0.025698775 -0.064649075 -0.1410286 -0.05040425 0.002926979 -0.06449427 -0.027299125 0.03718535
-0.04875614 -0.047464095 0.022510067 -0.05889019 0.08068976 0.050921783 0.056461968 0.16219166
0.026127478 0.05325809 0.1529616 0.044052694 0.045215458 0.04516789 -0.07970984 0.10750545
0.08036987 0.01117502 0.1420912 0.11496258 0.060967248 0.14629172 0.10004392 0.14095724
-0.01997444 -0.040608067 0.013687219 -0.032606233 -0.005823936 0.018077737 -0.016462412 0.031036062
-0.042593345 -0.029802391 -0.04334371 -0.016904056 0.04120267 -0.027907437 0.0060873693 -0.064115226
-0.093426876 -0.013202146 -0.010560466 -0.0657573 -0.034609683 -0.08569722 0.063294016 0.025691727
-0.03967413 0.029304743 0.046826184 0.15380445 0.14984268 0.013599857 0.16894467 0.21355265
0.14209524 0.032850236 0.136115 0.14126973 -0.013943691 -0.053345155 -0.035639934 -0.049573448
-0.0013635207 -0.028243572 -0.026615698 0.02503311 -0.038959786 -0.08682501 -0.028578594 -0.07311296
-0.051292345 -0.06556721 -0.01475903 -0.1345425 -0.017031452 0.022648623 -0.0065657366 0.022122836
0.052948043 0.03885548 0.12748685 0.1185939 -0.05079857 -0.08521589 -0.006385075 0.009285923
0.075352594 0.013759721 -0.0036099036 -0.030497078 0.018149815 -0.09441602 0.008161212 -0.03520742
0.020291405 -0.007243731 -0.029327242 0.05988894 0.046248928 0.044682093 0.029151363 0.028346073
0.024815932 0.1800248 0.11203941 0.12231569 0.16531159 0.19559592 0.11422373 0.11082462
-0.011492716 0.07561682 0.21144411 0.1480339 0.10643625 0.08657136 0.104329385 0.06272882
0.022127878 0.031838816 0.07714971 0.016539002 0.047904186 -0.07917624 0.08862861 0.09860488
0.042473476 -0.023198688 -0.016979434 -0.008602261 0.006634446 -0.003083826 0.08634226 -0.03613154
0.013309543 0.11028339 0.055231817 0.059791476 0.1952662 -0.05151929 -0.07815507 -0.026995603
-0.051525388 -0.042072725 -0.07114739 0.008895492 0.010148552 0.0005277042 0.07504828 0.13966288
0.1442679 0.07144979 0.09725059 0.114051834 0.053461205 -0.00076179986 0.041519284 0.07239858
0.0020022672 -0.030601792 0.09574074 0.059968274 0.022506291 0.034444023 0.0385686 0.077815436
-0.022929607 0.005034465 -0.0035388374 -0.0042333086 0.089057 -0.017488612 0.052176382 -0.022800026
-0.07229446 0.038994543 0.05351364 -0.050984025 0.03754774 -0.012741201 0.024698524 0.030455451
0.024975222 0.0074379877 0.03848195 -0.045935813 -0.023709126 -0.06452742 0.038849644 0.005340902
-0.06280177 0.027834864 0.05058799 0.12896733 0.034892477 0.00987342 0.16228434 0.2136387
0.07768212 0.041274637 0.0070011374 0.11448433 0.027812965 0.0056345896 -0.04929144 0.019743169
00000000: b481 91bc 39be a33d 77be dcbc dd28 a33d
00000010: 3d8b 843d 3ab1 9f3d b649 773d b92b b33d
00000020: 6b91 b43d 6f98 a83d 3880 e53d 7dae f53d
00000030: 2448 0d3e f5e2 c93d 29ec 8a3d 17e6 31bc
00000040: 2f92 e639 6739 1e3d 2176 e23d ef14 ef3d
00000050: 177f a03d 7cd9 fd3d 4e63 803d 0e6b 243e
00000060: e898 9e3d 3704 a53d ba74 a63d f46b 993d
00000070: 6c7e 163e 3585 9f3d 66ce 8c3d 1281 113d
00000080: 3afc 903d 3eaf 503d 3812 d53d daf3 c43d
00000090: 20d2 de3c 931c a43d b77f a33d c59c cabd
000000a0: 3d86 d2bc bc66 84bd cd69 10be b074 4ebd
000000b0: 8fd2 3f3b 9215 84bd 6aa2 dfbc aa4f 183d
000000c0: 85b4 47bd b669 42bd 0867 b83c d736 71bd
000000d0: ac40 a53d 5c93 503d aa44 673d 9215 263e
000000e0: 4b09 d63c 2825 5a3d f7a1 1c3e 9970 343d
000000f0: d833 393d f701 393d ea3e a3bd d12b dc3d
00000100: f598 a43d 6e17 373c 5b80 113e 8071 eb3d
00000110: cbb8 793d 7fcd 153e d4e3 cc3d 1857 103e
00000120: 70a1 a3bc a554 26bd 5b40 603c 1d8e 05bd
00000130: b7d6 bebb c317 943c 2edc 86bc 573f fe3c
00000140: 5c76 2ebd 2524 f4bc 2d89 31bd 607a 8abc
00000150: 22c4 283d 239e e4bc 8e78 c73b d84e 83bd
00000160: 9756 bfbd d04d 58bc ce05 2dbc c3ab 86bd
00000170: e2c2 0dbd 0682 afbd 4ba0 813d 7577 d23c
00000180: 5781 22bd 8010 f03c d0cc 3f3d ea7e 1d3e
00000190: 5c70 193e efd1 5e3c d5ff 2c3e 8cad 5a3e
000001a0: 6a81 113e f88d 063d bb61 0b3e 03a9 103e
000001b0: 1474 64bc 7380 5abd 2efb 11bd 870d 4bbd
000001c0: 2ab8 b2ba 105f e7bc 2a09 dabc 3d12 cd3c
000001d0: 4c94 1fbd 50d1 b1bd a81d eabc 3fbc 95bd
000001e0: ec17 52bd 1a48 86bd dccf 71bc 82c5 09be
000001f0: 8b85 8bbc 9b89 b93c 6425 d7bb f33a b53c
00000200: 0ce0 583d ec26 1f3d ea8b 023e 5ce1 f23d
00000210: 2912 50bd ab85 aebd e439 d1bb fc23 183c
00000220: 7652 9a3d 7470 613c 2294 6cbb 02d5 f9bc
00000230: ecae 943c 305d c1bd 9bb6 053c a835 10bd
00000240: 293a a63c d25c edbb af3f f0bc 1b4e 753d
00000250: 846f 3d3d 9204 373d d7ce ee3c 0636 e83c
00000260: c84a cb3c 6c58 383e eb74 e53d a680 fa3d
00000270: 7147 293e 4c4a 483e 22ee e93d 05f8 e23d
00000280: f24b 3cbc fedc 9a3d ce84 583e 3396 173e
00000290: 40fb d93d 534c b13d a5aa d53d f877 803d
000002a0: 8645 b53c 6b69 023d ab00 9e3d cd7c 873c
000002b0: 2e37 443d 2727 a2bd eb82 b53d 5bf1 c93d
000002c0: abf8 2d3d 2d0b bebc 7418 8bbc 7ff0 0cbc
000002d0: c465 d93b 041a 4abb 36d4 b03d aafe 13bd
000002e0: 4510 5a3c 42dc e13d c23a 623d e8e7 743d
000002f0: ddf3 473e e405 53bd c40f a0bd e225 ddbc
00000300: 490c 53bd 7354 2cbd b9b5 91bd 66be 113c
00000310: 1d46 263c a155 0a3a eab2 993d c903 0f3e
00000320: f7ba 133e 4454 923d 512b c73d 0294 e93d
00000330: 23fa 5a3d 86b3 47ba 2010 2a3d b545 943d
00000340: 7838 033b 9cb0 fabc b913 c43d 4ba1 753d
00000350: 1d5f b83c 2d15 0d3d 1cfa 1d3d b35d 9f3d
00000360: dfd6 bbbc 27f8 a43b d7eb 67bb 91b7 8abb
00000370: 8463 b63d 4744 8fbc e7b6 553d 1fc7 babc
00000380: 1e0f 94bd beb8 1f3d 1e31 5b3d a0d4 50bd
00000390: a9cb 193d 78c0 50bc 8f54 ca3c b67d f93c
000003a0: d698 cc3c 5dba f33b 409f 1d3d 3127 3cbd
000003b0: a439 c2bc f426 84bd ce20 1f3d bc02 af3b
000003c0: 379e 80bd f105 e43c 5a35 4f3d 0310 043e
000003d0: 6aeb 0e3d 20c4 213c de2d 263e 1ac4 5a3e
000003e0: ce17 9f3d 980f 293d cc69 e53b c376 ea3d
000003f0: 04d8 e33c 5da2 b83b d2e5 49bd 6dbc a13c

layer1.1.bn1.weight f4 [1, 16, 1, 1]
0.7614755 0.6627443 0.6857891 0.70559275 0.737808 0.71427387 0.5430119 0.7910178
0.7227633 0.6799545 0.7715771 0.7516932 0.6949306 0.7258405 0.7312802 1.0928453
00000000: 0ff0 423f 9ca9 293f e08f 2f3f baa1 343f
00000010: fce0 3c3f a7da 363f d402 0b3f 2480 4a3f
00000020: 0407 393f 8011 2e3f 1486 453f f76e 403f
00000030: f9e6 313f afd0 393f 2e35 3b3f 5be2 8b3f

layer1.1.bn1.bias f4 [1, 16, 1, 1]
-0.2885421 -0.232365 -0.10518447 -0.11219044 -0.02172571 -0.18091428 -0.18765114 -0.034227658
-0.009792789 -0.076300696 -0.03154651 -0.0014325002 -0.0998885 -0.006234881 -0.02875879 0.16984746
00000000: cabb 93be 17f1 6dbe f56a d7bd 1ac4 e5bd
00000010: 1efa b1bc 9841 39be 9f27 40be 4d32 0cbd
00000020: ef71 20bc 8a43 9cbd ea36 01bd bbc2 bbba
00000030: 5892 ccbd f94d ccbb 8e97 ebbc 7eec 2d3e

layer1.1.conv2.weight f4 [16, 16, 3, 3]
-0.037580024 0.01094692 -0.04384081 -0.0542382 -0.0062107025 -0.052255087 0.048498396 -0.060065802
-0.027453179 -0.10907703 -0.09875061 -0.097353004 -0.08376662 -0.09248986 -0.08209921 -0.08670726
-0.09320199 -0.06713746 -0.08177937 0.000494821 -0.0030581346 0.015038571 -0.020215636 -0.050325423
-0.061680503 -0.07973771 -0.015137027 0.011744407 0.021093281 -0.031329107 -0.053334586 0.011366648
0.04076102 -0.026931453 0.036100414 0.021170175 0.024995135 -0.01870604 -0.021716496 -0.019478114
-0.020083686 -0.022917097 -0.063724965 -0.047813278 -0.021984331 0.064465806 0.029182216 -0.05081374
-0.054554492 -0.05377264 0.02825736 0.0032354093 0.027732978 -0.07375324 0.034439836 0.02787232
-0.023652373 -0.043605547 0.010964054 -0.05129171 -0.041737158 0.008031068 -0.06439298 -0.0070224223
-0.021969633 -0.019931845 -0.024033582 -0.0006480519 -0.05443192 -0.0012102616 -0.07389447 0.016304031
-0.045272 0.06183421 0.0208666 0.023185799 0.021366712 0.019454481 -0.014380674 -0.05256041
0.041844614 -0.011339546 -0.05723646 -0.042186394 -0.03235501 -0.04118494 0.013101029 -0.06599172
-0.08355604 -0.037078932 -0.07415722 -0.076224424 -0.06657527 -0.052035358 -0.0049287733 -0.023886498
0.0077141766 0.0050122477 -0.036485873 0.025812056 0.022721538 -0.027480245 0.040087644 0.023523854
0.01622844 0.07988385 0.056955602 0.066193946 0.00442055 -0.07401131 -0.014976443 -0.047158856
-0.018890789 0.014116181 -0.047865637 -0.00024156299 -0.018525999 -0.01680981 0.03184062 0.04011922
-0.014208801 0.035783757 -0.0117976805 0.0005498963 -0.03680759 -0.019137792 0.021205775 -0.0015845628
-0.0028446433 0.024828939 -0.0130963605 0.035518527 0.069619395 0.062176168 0.06255407 -0.052206665
-0.018771822 -0.04862319 -0.076324366 -0.052289832 -0.012798869 -0.12688944 -0.08716382 -0.03151481
0.14680889 0.054957062 -0.038480826 0.15754181 0.19677496 0.10672143 0.13288787 0.17147025
0.038288124 -0.0055896332 0.014916638 0.004423222 0.014684333 0.10187369 0.072944365 0.056748096
0.040901933 0.077539064 0.06155838 -0.036776796 0.037283223 0.061017666 0.05149104 0.045992885
0.057100005 0.05916536 0.03535709 0.08402643 0.0030704974 0.082195975 0.12604694 0.08514964
0.06992986 0.096176155 0.029127562 0.03449992 -0.056140132 0.054164037 0.004062807 0.05107572
-0.005877167 -0.019666746 0.0131239025 -0.06527542 -0.024895146 0.02789166 -0.06556786 0.099243924
-0.063987955 -0.07162981 -0.019906795 0.049835782 0.07726909 0.08471751 -0.031962547 0.058887318
-0.027365867 0.01822066 0.047430936 0.07243909 0.0068160435 0.084469594 0.026405687 -0.00096003286
-0.012882214 -0.020484839 0.049116634 0.14585811 0.002748565 0.022798555 0.121760145 -0.04015683
-0.01999708 0.011387368 0.030414864 -0.019096669 0.039298687 -0.030364817 0.009617585 -0.059590314
-0.051152658 0.022435343 0.047192864 -0.051136352 0.01266645 0.054529317 0.06702286 0.0333867
0.12733313 0.12120344 -0.07655954 -0.18950243 -0.049636353 0.10874164 -0.20263912 -0.15149675
0.1242807 -0.03151762 0.0060683736 -0.06510613 -0.05187531 0.011974349 -0.00796081 -0.07591896
-0.053643655 -0.0999753 -0.05603777 -0.04508707 0.0041318666 -0.092302196 -0.057033 0.07268192
00000000: 83ed 19bd b65a 333c 6c92 33bd e028 5ebd
00000010: 2683 cbbb 6e09 56bd 41a6 463d 8f07 76bd
00000020: 7de5 e0bc c763 dfbd c33d cabd 0361 c7bd
00000030: d58d abbd 536b bdbd a123 a8bd 9393 b1bd
00000040: afe0 bebd 5d7f 89bd f17b a7bd e0b6 013a
00000050: fc6a 48bb 5764 763c 439b a5bc 0822 4ebd
00000060: b2a4 7cbd 864d a3bd 4b01 78bc 9d6b 403c
00000070: d1cb ac3c f352 00bd 5e75 5abd 2d3b 3a3c
00000080: 07f5 263d 5a9f dcbc 07de 133d 136d ad3c
00000090: 99c2 cc3c 693d 99bc cbe6 b1bc 9190 9fbc
000000a0: 8b86 a4bc a3bc bbbc 3c82 82bd dbd7 43bd
000000b0: 7c18 b4bc a606 843d 8b0f ef3c 1122 50bd
000000c0: 8874 5fbd b340 5cbd fb7b e73c 2909 543b
000000d0: 4530 e33c f00b 97bd c910 0d3d 7e54 e43c
000000e0: 9fc2 c1bc bb9b 32bd 93a2 333c 4217 52bd
000000f0: 95f4 2abd be94 033c 77e0 83bd 591c e6bb
00000100: a9f9 b3bc 1c48 a3bc 13e2 c4bc 07e2 29ba
00000110: 01f4 5ebd a4a1 9eba fc55 97bd 0890 853c
00000120: 226f 39bd de45 7d3d 6ff0 aa3c 25f0 bd3c
00000130: 3e09 af3c 015f 9f3c eb9c 6bbc 9649 57bd
00000140: 4265 2b3d 81c9 39bc c770 6abd a4cb 2cbd
00000150: b086 04bd 8ab1 28bd b3a5 563c ab26 87bd
00000160: 6e1f abbd 14e0 17bd bedf 97bd 8d1b 9cbd
00000170: 9d58 88bd 0723 55bd 8c81 a1bb 9ead c3bc
00000180: 34c7 fc3b c83d a43b 3672 15bd ce73 d33c
00000190: 8522 ba3c 401e e1bc f132 243d 19b5 c03c
000001a0: 81f1 843c 259a a33d 474a 693d b190 873d
000001b0: 43da 903b 3e93 97bd c15f 75bc a529 41bd
000001c0: dbc0 9abc 8e47 673c c20e 44bd 124c 7db9
000001d0: d6c3 97bc bab4 89bc 4f6b 023d 0d54 243d
000001e0: 08cc 68bc fd91 123d 0f4b 41bc ea26 103a
000001f0: 8ec3 16bd dcc6 9cbc bcb7 ad3c 1bb1 cfba
00000200: 326d 3abb 0f66 cb3c 1e92 56bc e07b 113d
00000210: 9d94 8e3d 70ac 7e3d 591c 803d a8d6 55bd
00000220: 5dc7 99bc 1c29 47bd f34f 9cbd dd2d 56bd
00000230: 59b2 51bc 4eef 01be f282 b2bd ac15 01bd
00000240: 1255 163e a81a 613d 129e 1dbd a452 213e
00000250: 607f 493e c490 da3d c213 083e e695 2f3e
00000260: 02d4 1c3d 3e29 b7bb ea64 743c adf0 903b
00000270: 8e96 703c 27a3 d03d db63 953d b170 683d
00000280: c988 273d cdcc 9e3d a424 7c3d 44a3 16bd
00000290: 4bb6 183d a9ed 793d 45e8 523d 0963 3c3d
000002a0: b2e1 693d 6057 723d 99d2 103d 0d16 ac3d
000002b0: 663a 493b 5d56 a83d 7312 013e ef62 ae3d
000002c0: 6337 8f3d 01f8 c43d ed9c ee3c ca4f 0d3d
000002d0: 32f3 65bd 1cdb 5d3d 4c21 853b c634 513d
000002e0: 4095 c0bb 281c a1bc a305 573c 1faf 85bd
000002f0: e8f0 cbbc 0d7d e43c 7148 86bd 6640 cb3d
00000300: 1e0c 83bd a6b2 92bd 9313 a3bc 9b20 4c3d
00000310: 423f 9e3d 6080 ad3d 29eb 02bd d433 713d
00000320: 622e e0bc 7e43 953c f146 423d f25a 943d
00000330: 1e59 df3b 65fe ac3d bd50 d83c b7aa 7bba
00000340: ec0f 53bc d2cf a7bc 862e 493d d45b 153e
00000350: 4521 343b 09c4 ba3c 625d f93d 7d7b 24bd
00000360: ebd0 a3bc 1592 3a3c 9828 f93c 9e70 9cbc
00000370: a9f7 203d a3bf f8bc 1393 1d3c f914 74bd
00000380: 7385 51bd 53ca b73c 4e4d 413d 5a74 51bd
00000390: f186 4f3c 225a 5f3d 4843 893d 7ec0 083d
000003a0: 9e63 023e 8239 f83d 40cb 9cbd ed0c 42be
000003b0: 7d4f 4bbd f0b3 de3d a180 4fbe f721 1bbe
000003c0: e186 fe3d 9f18 01bd 35d9 c63b 5d56 85bd
000003d0: 347b 54bd 0f30 443c 0f6e 02bc 667b 9bbd
000003e0: 73b9 5bbd dabf ccbd dc87 65bd 38ad 38bd
000003f0: 9c64 873b ef08 bdbd 6f9b 69bd 42da 943d

layer1.1.bn2.weight f4 [1, 16, 1, 1]
0.7013588 0.52492726 0.915041 0.6607621 0.53781533 0.7640196 1.0113097 0.6334249
0.81318 0.8765237 0.49939162 0.71492964 0.47538897 0.15301023 1.1080798 0.7787279
00000000: 408c 333f a261 063f 2140 6a3f b427 293f
00000010: 44ae 093f ca96 433f 9972 813f 2228 223f
00000020: 912c 503f db63 603f 42b0 ff3e a105 373f
00000030: 2f66 f33e b7ae 1c3e 8fd5 8d3f b65a 473f

layer1.1.bn2.bias f4 [1, 16, 1, 1]
0.0023345454 -0.048649844 0.00031988928 -0.038267173 -0.13029982 0.0077310903 -0.23784745 -0.0045026243
-0.063569404 -0.15612239 0.030198466 -0.08220156 -0.25951648 0.060586296 -0.10475633 -0.061033413
00000000: 2cff 183b 0f45 47bd d0b6 a739 0abe 1cbd
00000010: 516d 05be 1655 fd3b 488e 73be c08a 93bb
00000020: ad30 82bd 8cde 1fbe c662 f73c 4b59 a8bd
00000030: 58df 84be 5629 783d 7d8a d6bd 2cfe 79bd

layer2.0.conv1.weight f4 [32, 16, 3, 3]
-0.0027142009 -0.04424723 0.0610297 0.021339584 0.06331786 0.0007941179 0.06111234 0.03963726
0.0014054739 -0.045523454 0.026195474 -0.0040607187 0.050849557 0.033159416 0.023644315 -0.037147135
-0.034193244 0.061614767 0.08857862 0.0023985829 -0.0319497 0.08971647 0.03600803 -0.012462586
0.011470158 -0.0037667737 0.039176073 -0.037358347 -0.05807125 -0.07170997 -0.09900279 0.012598342
-0.017011706 0.016270984 -0.027028315 -0.032883618 -0.11994968 -0.10993569 -0.11638829 -0.11978156
0.014012722 -0.050583743 -0.041804925 0.039167542 0.031059427 0.0039844518 -0.05722022 0.06421975
-0.031450175 -0.055345066 0.027858915 -0.028775588 -0.019035421 0.0665486 -0.0016178344 -0.011751968
0.05893209 -0.019508984 0.045646906 0.05721329 0.017923677 0.042987406 -0.033674173 -0.039881162
-0.013676119 -0.019935014 -0.012034589 0.08175462 0.09125745 0.09202257 0.0031959186 0.054487623
-0.07570771 -0.027060738 0.07279265 0.003204214 0.030135177 -0.039053377 0.019611867 0.04194571
-0.024888188 -0.019033667 -0.0143747395 -0.10397208 -0.1627785 -0.07910489 -0.14674193 -0.15155
-0.028231233 -0.07682991 -0.081196874 -0.08207559 -0.004111579 -0.035354923 -0.019830707 -0.10400561
-0.069859415 -0.010573523 0.011786403 -0.07433539 -0.011302067 -0.034255393 -0.023038581 0.027397253
0.041978262 -0.024560308 -0.002235027 0.08432257 0.038703002 0.008115097 0.07800901 -0.08725469
-0.08823612 -0.053465355 -0.1090246 -0.024664579 -0.087802775 0.06080903 -0.013499947 0.023588335
-0.074699804 0.004743439 -0.0713672 0.014872411 0.0700238 -0.0597015 0.014270157 0.10701769
0.073934965 0.0520168 0.111496456 0.069876 0.02069054 -0.00598192 -0.05241559 -0.011724245
-0.076563016 -0.042174377 -0.08228313 -0.105997615 -0.11273248 -0.049199663 -0.045202915 -0.009685806
0.026776988 -0.059372198 -0.029651811 -0.015897691 0.067562245 -0.021335257 -0.027769132 -0.014324157
0.01143282 0.12466978 0.19846663 0.19132738 0.103320785 0.20517151 0.16189893 0.09086706
0.036770385 0.06991257 0.09806243 0.042843748 0.083498046 0.17937353 0.15954594 0.19484065
0.15525906 0.12195353 0.18377495 0.039584924 0.09019593 0.042465176 0.077722095 0.1417893
0.13524918 -0.019612554 0.013191956 0.05799968 -0.011445906 -0.04552511 0.037380844 0.049608972
0.0835634 0.09072055 0.040714927 0.09637804 0.12429513 -0.07139455 -0.040768463 0.025607815
-0.0094664 -0.0171448 0.059903946 -0.09432929 0.021208156 -0.045336794 -0.1304995 -0.04373588
-0.0033916803 -0.14315474 -0.068033576 -0.005067506 -0.14720823 -0.13217391 -0.11484198 0.11890415
0.11481888 0.10918298 0.08044339 0.13428348 0.08842465 0.047038298 0.10889653 0.047582157
-0.043609362 0.01932713 0.047841214 -0.05015088 -0.085422225 0.008693447 -0.07246807 0.0013552038
0.032173403 -0.11787791 -0.056832116 -0.059657626 -0.11324365 -0.041072533 0.06515574 -0.024305018
-0.047609374 0.007606592 -0.11576156 0.019302506 -0.0458442 -0.0076777553 0.10925047 0.047037482
-0.010620426 0.040334843 0.09376186 0.067386605 0.017832736 0.1059806 0.026249561 -0.018431107
-0.051740084 0.036566667 -0.014491263 0.015283109 -0.18650176 -0.14098033 -0.13156614 -0.09500476
00000000: bce0 31bb 953c 35bd 47fa 793d 5ad0 ae3c
00000010: cbac 813d 5a2c 503a ef50 7a3d ae5a 223d
00000020: e137 b83a cd76 3abd e497 d63c c70f 85bb
00000030: a047 503d 2bd2 073d b9b1 c13c 9827 18bd
00000040: 370e 0cbd c45f 7c3d b568 b53d 8b31 1d3b
00000050: b0dd 02bd 45bd b73d 287d 133d e02f 4cbc
00000060: 54ed 3b3c fadb 76bb 1777 203d 1105 19bd
00000070: 1edc 6dbd addc 92bd fac1 cabd 4769 4e3c
00000080: 225c 8bbc ba4a 853c 7c6a ddbc f9b0 06bd
00000090: 2ea8 f5bd f725 e1bd fc5c eebd 0950 f5bd
000000a0: 9e95 653c e630 4fbd a43b 2bbd 256e 203d
000000b0: 5770 fe3c 0190 823b c05f 6abd a585 833d
000000c0: e6d1 00bd 82b1 62bd 6138 e43c c8ba ebbc
000000d0: 2cf0 9bbc a24a 883d 840d d4ba 548b 40bc
000000e0: c662 713d 4ed1 9fbc 40f8 3a3d 7c58 6a3d
000000f0: add4 923c 9013 303d eeed 09bd 6e5a 23bd
00000100: cd11 60bc c14e a3bc ba2c 45bc f76e a73d
00000110: 30e5 ba3d 5476 bc3d 9e72 513b 6a2e 5f3d
00000120: a50c 9bbd 7bae ddbc 5014 953d cafd 513b
00000130: 0cde f63c 6ff6 1fbd 11a9 a03c 44cf 2b3d
00000140: 50e2 cbbc 7eec 9bbc 0784 6bbc 50ef d4bd
00000150: 68af 26be bf01 a2bd 8443 16be ec2f 1bbe
00000160: 3045 e7bc 0059 9dbd 8c4a a6bd 3f17 a8bd
00000170: 6dba 86bb 53d0 10bd 0274 a2bc e500 d5bd
00000180: 7412 8fbd 923c 2dbc c21b 413c 273d 98bd
00000190: 4e2c 39bc 624f 0cbd 68bb bcbc 3470 e03c
000001a0: 66f1 2b3d b332 c9bc 8879 12bb 50b1 ac3d
000001b0: 0a87 1e3d 2ff5 043c 30c3 9f3d 96b2 b2bd
000001c0: 24b5 b4bd 7dfe 5abd 4a48 dfbd 5f0d cabc
000001d0: f1d1 b3bd e412 793d e22e 5dbc 533c c13c
000001e0: 36fc 98bd da6e 9b3b f728 92bd 6aab 733c
000001f0: a368 8f3d 8f89 74bd 60cd 693c 172c db3d
00000200: 376b 973d 910f 553d 4158 e43d 261b 8f3d
00000210: 357f a93c fb03 c4bb bbb1 56bd 0c17 40bc
00000220: 12cd 9cbd 0abf 2cbd 0f84 a8bd 4715 d9bd
00000230: 49e0 e6bd 9685 49bd b126 39bd 37b1 1ebc
00000240: 6a5b db3c 4330 73bd 5be8 f2bc e03b 82bc
00000250: 135e 8a3d 47c7 aebc 177c e3bc deaf 6abc
00000260: b950 3b3c df52 ff3d d63a 4b3e 53eb 433e
00000270: d999 d33d 7b18 523e d5c8 253e 8218 ba3d
00000280: 8b9c 163d 522e 8f3d f5d4 c83d ed7c 2f3d
00000290: 0601 ab3d b2ad 373e 0360 233e 4f84 473e
000002a0: 3bfc 1e3e c6c2 f93d 802f 3c3e cd23 223d
000002b0: a5b8 b83d f7ef 2d3d c32c 9f3d 3731 113e
000002c0: c37e 0a3e 82aa a0bc 1323 583c 1391 6d3d
000002d0: 9c87 3bbc 8a78 3abd a81c 193d c732 4b3d
000002e0: 4a23 ab3d b2cb b93d b2c4 263d da61 c53d
000002f0: 728e fe3d 4e37 92bd d5fc 26bd 7bc7 d13c
00000300: f618 1bbc 4073 8cbc d75d 753d b72f c1bd
00000310: babc ad3c 13b3 39bd a9a1 05be 6524 33bd
00000320: f446 5ebb 2897 12be 3055 8bbd 520d a6bb
00000330: c1bd 16be 9958 07be 4632 ebbd 0584 f33d
00000340: 2926 eb3d 549b df3d 81bf a43d 9c81 093e
00000350: fc17 b53d 3bab 403d 2505 df3d 82e5 423d
00000360: bb9f 32bd ee53 9e3c 26f5 433d 026b 4dbd
00000370: d9f1 aebd f66e 0e3c 246a 94bd 18a1 b13a
00000380: 42c8 033d f969 f1bd cbc8 68bd 8e5b 74bd
00000390: 49ec e7bd ac3b 28bd 5f70 853d 511b c7bc
000003a0: 0c02 43bd b840 f93b 6614 edbd 4a20 9e3c
000003b0: 21c7 3bbd ae95 fbbb b6be df3d 60aa 403d
000003c0: 4c01 2ebc 2636 253d 3806 c03d fd01 8a3d
000003d0: f515 923c 5b0c d93d 5209 d73c d5fc 96bc
000003e0: 69ed 53bd eec6 153d c36c 6dbc 0166 7a3c
000003f0: 51fa 3ebe 265d 10be 46b9 06be db91 c2bd

layer2.0.bn1.weight f4 [1, 32, 1, 1]
0.77869743 0.49065217 0.75705594 0.722058 0.68382925 0.6673728 0.6621681 0.73302954
0.77120346 0.7420391 0.73396057 0.909908 0.7254454 0.68650395 0.7460122 0.63928604
0.922411 0.76138407 0.7292566 0.80750495 0.7652309 0.7343616 0.7286969 0.6807332
0.7132225 0.7244507 0.7157345 0.63667846 0.7170074 0.8274398 0.75928766 0.8410209
00000000: b758 473f c336 fb3e 6bce 413f cbd8 383f
00000010: 6f0f 2f3f f2d8 2a3f d983 293f d3a7 3b3f
00000020: 976d 453f 46f6 3d3f d7e4 3b3f bbef 683f
00000030: cab6 393f b9be 2f3f a8fa 3e3f 40a8 233f
00000040: 2123 6c3f 11ea 423f 8fb0 3a3f a5b8 4e3f
00000050: 2ce6 433f 1fff 3b3f e18b 3a3f 8844 2e3f
00000060: c095 363f 9a75 393f 603a 373f 5cfd 223f
00000070: cc8d 373f 18d3 533f ad60 423f 254d 573f

layer2.0.bn1.bias f4 [1, 32, 1, 1]
0.043261778 -0.13893032 -0.0003578224 -0.016535887 -0.15817298 -0.14080235 -0.14916942 -0.0154497465
-0.027524369 -0.020602511 0.002587099 -0.0035719632 -0.035380114 -0.05436793 0.009829263 -0.04463783
-0.06498602 -0.07146298 -0.033609815 -0.11842227 -0.051110573 -0.13029459 -0.010061585 -0.07090009
-0.08382591 -0.025775513 -0.0076733017 -0.10430483 -0.04367677 -0.088691406 -0.021118678 -0.08147201
00000000: 4333 313d c043 0ebe 1c9a bbb9 4576 87bc
00000010: 19f8 21be 7e2e 10be debf 18be ef20 7dbc
00000020: c97a e1bc 99c6 a8bc 528c 293b 9917 6abb
00000030: bdea 10bd e8b0 5ebd eb0a 213c 28d6 36bd
00000040: 6417 85bd 2f5b 92bd 72aa 09bd 6087 f2bd
00000050: 5259 51bd f26b 05be 59d9 24bc 1134 91bd
00000060: ebac abbd 2b27 d3bc 5270 fbbb c59d d5bd
00000070: 6ae6 32bd d7a3 b5bd 1401 adbc ccda a6bd

layer2.0.conv2.weight f4 [32, 32, 3, 3]
-0.062886894 -0.05842925 -0.017589059 -0.0025786748 -0.019429477 -0.04830839 0.06296443 0.024754696
9.533852e-05 -0.11189193 -0.041147925 -0.18213806 -0.074744135 0.04732105 -0.067532025 0.04262062
0.16774744 0.14921978 0.0046532177 0.019493556 -0.019526701 0.041782774 -0.023082975 -0.05440501
0.012345989 0.050072532 0.0060042287 0.03318957 -0.003314435 0.0077226697 0.024145043 0.03493235
0.05319868 0.025683118 -0.0066353423 -0.011825143 -0.034319855 -0.07204992 -0.05339542 -0.03625846
0.011292921 0.03151724 -0.013905951 0.031333763 0.015094171 -0.028141035 -0.010280885 -0.08630559
-0.0469711 0.025373027 0.020038629 -0.054182865 0.008000583 0.037829842 -0.0622763 -0.04200432
-0.04258456 -0.029522913 -0.013768019 -0.040837403 0.0030196812 0.05361405 0.052977353 0.023231847
0.035924617 0.044530727 -0.016950553 -0.008980384 -0.030079061 0.042393815 -0.0340249 -0.0037734068
-0.10209986 0.06512391 -0.09031487 0.064221874 0.08070872 0.06990082 -0.0060060276 0.049757224
0.12148653 0.0085773375 0.054956023 -0.009898216 0.013873257 0.009692262 -0.07204131 0.0030367167
0.06138225 0.011297889 0.096332155 0.005114608 0.056867737 0.05635919 0.034775607 0.010130119
0.093983494 -0.03844885 0.00838575 0.077336565 0.048536558 0.06763992 0.055644516 0.029233282
0.026445124 0.005180196 0.02868417 -0.024790118 0.029763956 0.030935755 -0.016839432 0.023743039
0.018381959 -0.0071810503 0.0081211105 0.036362007 -0.038458377 -0.07856947 -0.03507509 -0.061663806
-0.00401122 -0.02718711 -0.005925456 -0.031571846 0.029925648 0.058007613 0.01814243 0.039508205
-0.010986282 0.026425127 -0.043709874 -0.035815977 -0.03927583 0.017381193 0.0077397306 -0.08201645
-0.07339423 0.06493073 -0.053438198 -0.0017860883 0.07688659 0.07476937 0.102988 0.10964236
0.100587875 0.14755566 0.09301655 0.112431005 -0.018970232 0.047101844 0.12133473 0.07746397
-0.06136312 -0.06350414 -0.0063016005 -0.047380995 -0.025424207 -0.046716265 -0.07752242 0.022941511
-0.01665072 0.05855038 -0.0073572975 -0.01882303 0.01767636 -0.03605363 0.017564908 -0.005685551
0.006282381 -0.020781642 0.002221025 -0.101272605 -0.057512145 -0.14803311 0.0047146063 0.039545573
0.010909755 0.0074973404 0.042616393 0.0912222 -0.13705811 -0.013194727 -0.058766674 -0.024012385
-0.046522424 -0.045119587 0.0042732586 -0.050811127 0.051407788 -0.16128197 -0.20161882 0.009905422
-0.18118216 -0.1109043 0.019017505 -0.054399975 0.13762575 0.2658189 -0.009429873 0.022012202
0.02185158 0.044917163 -0.010325098 0.04931728 0.008159393 0.011401961 -0.00028390647 -0.009470184
0.01722144 0.0145252235 -0.06418665 -0.039153107 -0.002252485 -0.026351057 -0.0068261367 0.025906878
-0.10121963 -0.15483913 -0.09539999 -0.12945952 0.02443389 0.09788164 -0.04821016 0.117386445
0.26844493 0.017231438 0.037390217 0.03371933 0.007413049 -0.0031203427 -0.038830332 -0.043198843
0.020145819 -0.0187183 -0.04707645 -0.012664897 -0.060012892 0.029330783 0.04268266 -0.046041343
2.0317178e-05 -0.029318193 0.022579568 -0.10691414 -0.021138249 -0.05050124 -0.11002729 -0.03358272
0.0885211 -0.028018238 -0.0074062925 0.16438906 -0.06534256 -0.058317255 -0.04063118 -0.04383736
00000000: d8ca 80bd 8253 6fbd ee16 90bc fcfe 28bb
00000010: 912a 9fbc 05df 45bd 7ff3 803d 5cca ca3c
00000020: 7af0 c738 9927 e5bd ba8a 28bd 6682 3abe
00000030: 7413 99bd b8d3 413d 3b4e 8abd f692 2e3d
00000040: fcc5 2b3e 12cd 183e 057a 983b f3b0 9f3c
00000050: 76f6 9fbc 6a24 2b3d 8218 bdbc cad7 5ebd
00000060: d546 4a3c db18 4d3d 1fbf c43b c9f1 073d
00000070: fe36 59bb 730e fd3b d3cb c53c 3915 0f3d
00000080: dce6 593d 6765 d23c 496d d9bb 3fbe 41bc
00000090: fa92 0cbd e98e 93bd 28b5 5abd c083 14bd
000000a0: f205 393c 3918 013d c9d5 63bc d557 003d
000000b0: 8b4d 773c 0788 e6bc 2871 28bc fcc0 b0bd
000000c0: c564 40bd 18db cf3c 0d28 a43c daee 5dbd
000000d0: e114 033c 77f3 1a3d 6f15 7fbd b90c 2cbd
000000e0: 266d 2ebd 09da f1bc 4293 61bc 1f45 27bd
000000f0: d8e5 453b 689a 5b3d c8fe 583d b750 be3c
00000100: b125 133d da65 363d e3db 8abc 7622 13bc
00000110: 5d68 f6bc 23a5 2d3d b25d 0bbd 434b 77bb
00000120: bb19 d1bd af5f 853d 01f7 b8bd c286 833d
00000130: 9d4a a53d 2928 8f3d 36ce c4bb 3bce 4b3d
00000140: eecd f83d f687 0c3c 9119 613d 212c 22bc
00000150: a84c 633c 4bcc 1e3c 658a 93bd a703 473b
00000160: f46b 7b3d c81a 393c cb49 c53d 7198 a73b
00000170: 25ee 683d e5d8 663d de70 0e3d ccf8 253c
00000180: 6b7a c03d 8b7c 1dbd 6364 093c a262 9e3d
00000190: 45ce 463d cc86 8a3d 81eb 633d a37a ef3c
000001a0: 72a3 d83c a2be a93b 11fb ea3c a514 cbbc
000001b0: 8ad3 f33c fb6c fd3c d9f2 89bc c380 c23c
000001c0: c395 963c 044f ebbb 680e 053c 54f0 143d
000001d0: 8886 1dbd 08e9 a0bd e6aa 0fbd 3093 7cbd
000001e0: 8d70 83bb 81b7 debc 542a c2bb 7b51 01bd
000001f0: a226 f53c 6499 6d3d 6f9f 943c 5bd3 213d
00000200: ceff 33bc 8279 d83c 2009 33bd c6b3 12bd
00000210: b1df 20bd 0163 8e3c 919d fd3b 3ef8 a7bd
00000220: b74f 96bd 67fa 843d 03e2 5abd 2e1b eaba
00000230: b776 9d3d af20 993d 5feb d23d 2c8c e03d
00000240: 0401 ce3d d518 173e 767f be3d 3a42 e63d
00000250: 7667 9bbc dded 403d 587e f83d 6ea5 9e3d
00000260: e557 7bbd 750e 82bd a87d cebb 9312 42bd
00000270: 6d46 d0bc 8e59 3fbd 13c4 9ebd d6ef bb3c
00000280: 1767 88bc 86d2 6f3d 7c15 f1bb c132 9abc
00000290: 04ce 903c f9ac 13bd 48e4 8f3c dc4d babb
000002a0: 6edc cd3b 433e aabc 9e8e 113b 0368 cfbd
000002b0: db91 6bbd fe95 17be fc7c 9a3b 8afa 213d
000002c0: d4be 323c 40ac f53b 878e 2e3d b4d2 ba3d
000002d0: f658 0cbe b22e 58bc 53b5 70bd 9fb5 c4bc
000002e0: 4c8e 3ebd 51cf 38bd b106 8c3b 541f 50bd
000002f0: f990 523d 1a27 25be 2a75 4ebe 5a4a 223c
00000300: d187 39be cb21 e3bd 99ca 9b3c 82d2 5ebd
00000310: c4ed 0c3e 6a19 883e c17f 1abc ef52 b43c
00000320: 1602 b33c 0ffb 373d 9a2a 29bc eb00 4a3d
00000330: faae 053c 4acf 3a3c 48d9 94b9 d528 1bbc
00000340: fa13 8d3c 34fb 6d3c 4a74 83bd 025f 20bd
00000350: 6d9e 13bb 2cde d7bc c9ad dfbb a93a d43c
00000360: 3d4c cfbd 268e 1ebe 1261 c3bd 0991 04be
00000370: 9529 c83c 2b76 c83d 0478 45bd 4e68 f03d
00000380: 9d71 893e f228 8d3c 7c26 193d 481d 0a3d
00000390: 2ae9 f23b aa7e 4cbb 8e0c 1fbd 45f1 30bd
000003a0: d808 a53c 1f57 99bc 3cd3 40bd 6e80 4fbc
000003b0: 14d0 75bd 1c47 f03c 03d4 2e3d d995 3cbd
000003c0: cf6e aa37 b52c f0bc c9f8 b83c cdf5 dabd
000003d0: 1f2a adbc 63da 4ebd fd55 e1bd 098e 09bd
000003e0: 8d4a b53d 8186 e5bc 7cb0 f2bb 9b55 283e
000003f0: 52d2 85bd 13de 6ebd e16c 26bd ce8e 33bd

layer2.0.bn2.weight f4 [1, 32, 1, 1]
0.687633 0.7424481 0.6412318 0.7561104 0.7209431 0.7689758 0.6171916 0.68021715
0.8312171 0.66440195 0.4055252 0.6475968 0.833007 0.7560359 0.70791686 0.54187185
0.7915948 0.7680855 0.82045037 0.7057047 0.70833576 0.7669892 0.7398134 0.35916197
0.7238989 0.6018703 0.77901393 0.46785787 0.53951234 0.7930674 0.7402985 0.7327829
00000000: b708 303f 1411 3e3f c427 243f 7490 413f
00000010: ba8f 383f 99db 443f 4500 1e3f b622 2e3f
00000020: a5ca 543f 3f16 2a3f 00a1 cf3e e7c8 253f
00000030: f23f 553f 928b 413f 0a3a 353f 1db8 0a3f
00000040: f5a5 4a3f 40a1 443f 0909 523f 10a9 343f
00000050: 7e55 353f 6759 443f 6964 3d3f 14e4 b73e
00000060: 7051 393f 2c14 1a3f 756d 473f 118b ef3e
00000070: 7b1d 0a3f 7706 4b3f 3484 3d3f a997 3b3f
