assignment1/notebooks/model_best.pth (torch, 735787 bytes, 77 tensors)

conv.weight f4 [16, 3, 3, 3]
00000000: eea6 9abd 7bb7 a13d 3425 9cbd aecd 2f3e
00000010: ab09 6c3e 8cf5 883e c184 3cbe e2e3 04bc
00000020: cbeb e13d 267f 22be c34f 843e 534b 2b3e
00000030: 6175 fa3d fc87 a93e 321b b73e 5f78 73be
00000040: deae 313c fa69 fb3c 4f0c 21be b0d9 3a3e
00000050: 5355 323e 74b1 42be 3eab 813d 8862 893e
00000060: 9a91 03bf e254 a4be 344e 1dbe 9eb0 dfbe
00000070: 23f6 8dbe f09d bbbe 5595 3abd e225 cabd
00000080: 04f9 463e e356 f93d 7c07 653e 53d8 ae3e
00000090: 5ce6 3cbe 5675 01bc 6a79 cabc bbd4 3bbe
000000a0: c54a 9d3d 291b 0c3e d4df 543d 3c6f a03e
000000b0: 3cb5 933e e8de 6fbe 8f29 3e3d fed3 fd3d
000000c0: cc99 45be 86ce b6bd 3237 1b3d 94bd 69be
000000d0: ed37 bbbb 8bbd 7b3e f2a5 c93e c46f 0a3f
000000e0: 88d5 f33e e5e3 2d3e 991e ca3e f228 023e
000000f0: 83d9 f03d 0a7b 173e 0d53 393e f578 42be
00000100: c383 e6bd 20e0 57be 43a2 debd 1b82 7fbe
00000110: 1b22 a0be 0cdd dabd 942f 193e 5573 763c
00000120: 2dec 10be fcb0 b1be 5d34 b5be ae31 a7be
00000130: cacd 9cbe 69fe 4fbe ef8a 133e 89c3 6b3e
00000140: a69d d23b 6efb 05bf ca28 83be 0877 433e
00000150: fc29 833e e23b 3fbf 37ea 673d ad98 8d3d
00000160: 74f9 37bf ab71 0bbe 1ddf 7b3e 6f60 833e
00000170: 52d1 443f c67e 4f3f c68d 9cbe 4901 8a3e
00000180: 6ca6 413f 4af9 93be b7f5 a93d 510a 0fbf
00000190: ab22 9cbe 687c 613e d2e9 343d fbdc 24bf
000001a0: e008 9f3d a061 063e 7795 f4be e5fa 593d
000001b0: 5348 113e 4157 33be 5f95 c33e 1671 ecbd
000001c0: b872 96be fa38 0c3f 581d 00be 6ea8 d2be
000001d0: c336 ac3e efda 15be a7f9 cabe 9407 523e
000001e0: efcf 91be ba22 08bf d2a2 3c3f a656 98bd
000001f0: 98a6 e4be a473 e63e 04fd 25be f490 d3be
00000200: 4338 463e ec59 6dbe fe7f 32be 4081 393f
00000210: 1f35 adba 61f4 a1bc b649 023f 9b4e c9bd
00000220: 3b40 54be c478 7bbe c586 fb3d 35cf 9a3d
00000230: 97d4 a13c 6d11 96bd ec2c 0f3e 64d5 5abe
00000240: ca96 95be db15 97be aa7c 78be 5bc1 543d
00000250: 9db3 983d 7086 78be abbe 9abd 9f10 f9bd
00000260: 5795 79be df46 9bbe e7d9 2abe 02a8 afbe
00000270: b73e 833e d610 3f3e 345f 613d 1e3e aa3d
00000280: 6123 7c3e 1360 3fbc 9301 a2be bd92 97be
00000290: 33e6 81be 818b 01bf 5525 0abf 4c06 96be
000002a0: e4ef afbe 1d68 11bf f422 debe 6678 013e
000002b0: 0be8 ed3e 061e 203e 4902 9ebd ba1b ce3d
000002c0: 390d 8a3d 2286 f33c d749 9a3d 5d45 17bd
000002d0: 9b26 c43e f60b 423f 6049 f03e 1ffb 753e
000002e0: 2ae6 173f be7c 073f 546b 083e 36d4 193e
000002f0: 8549 253e 78a3 7f3d 315a e1bd f6a7 d0bd
00000300: 6665 743e 9aff 8d3e eff9 9aba 0271 20be
00000310: 6ac1 24be b1f7 5dbe caeb 67be 801a 82be
00000320: 4842 adbe 76b5 72bc 36aa 773e 3337 26bb
00000330: afdb 66be 2544 46be 7d67 83be b618 cdbe
00000340: 378f 77be bb40 70bd 72e8 d43e f4cb 1f3f
00000350: c5e3 893e ff58 9b3d b2b2 a23e 4062 aa3e
00000360: d369 353e d6ba 053e a63c 843e f53b 8fbd
00000370: a6e6 61be 464f ee3d 8cb4 ce3c 213e 01bd
00000380: bb69 afba 6d37 193e 76db b43d f14c 073d
00000390: 4f5b 3bbe 8744 c3be f133 6dbe 936f 153e
000003a0: 897d e13a 4614 293e de6a 9b3e 652d 303e
000003b0: e89e d83d c243 623d be2f 17be b6ec b2bd
000003c0: d732 933e b4c9 483d 6124 2a3e b558 b1be
000003d0: f78f f5be de63 dabe 8864 013e 504b bf3d
000003e0: a45c a4be 6941 103f cfd5 f63e b9cf 8bbc
000003f0: 9fd3 ec3d 3966 04be 4c99 97bd 56ee 6a3e
-0.075513706 0.07896324 -0.076242834 0.17168304 0.23050563 0.26749837 -0.18410017 -0.008110972
0.11031302 -0.15868816 0.25842103 0.16727953 0.122294195 0.3311156 0.35762936 -0.23776387
0.010844914 0.030690182 -0.15727352 0.18247104 0.17415361 -0.19013005 0.0633149 0.26832986
-0.51394045 -0.3209601 -0.15361863 -0.43689436 -0.2772685 -0.36643934 -0.04555257 -0.09870507
0.1943093 0.121747755 0.22366136 0.34149417 -0.1844725 -0.00790151 -0.024716098 -0.18342869
0.07680277 0.13682236 0.05197127 0.31334865 0.28849208 -0.23424876 0.046426352 0.1239395
-0.1929695 -0.0892611 0.037894435 -0.22826225 -0.005713454 0.24584024 0.3938442 0.5407679
0.4762385 0.16981466 0.3947647 0.12710932 0.11760237 0.1479303 0.18098088 -0.18991454
-0.112556 -0.2108159 -0.10870793 -0.24951975 -0.3127602 -0.106866926 0.14959556 0.015042146
-0.14152594 -0.3470534 -0.35391513 -0.3265509 -0.30625755 -0.20311894 0.14408468 0.2302381
0.0064274846 -0.52336776 -0.25617057 0.19088376 0.2561797 -0.7470075 0.05661985 0.06913886
-0.7186501 -0.1361758 0.2459683 0.2565951 0.768819 0.81052816 -0.30576915 0.26954105
0.75644565 -0.2890113 0.082988195 -0.55875117 -0.304952 0.22020113 0.0441683 -0.6439969
0.07765365 0.13123178 -0.47770283 0.053217787 0.14187746 -0.17513753 0.381999 -0.11545007
-0.29384398 0.5477444 -0.12511194 -0.41144127 0.3363553 -0.14634298 -0.39643595 0.20510703
-0.28478953 -0.5317799 0.73685944 -0.07438402 -0.4465835 0.45010102 -0.16209799 -0.41321528
0.193574 -0.23178834 -0.17431638 0.72462845 -0.0013214684 -0.01976985 0.50893724 -0.09829446
-0.20727627 -0.24557787 0.122815646 0.07559053 0.019754691 -0.073275425 0.1398198 -0.21370465
-0.29216605 -0.29508862 -0.24266306 0.05194221 0.074561335 -0.24270034 -0.07555898 -0.12161373
-0.24373375 -0.30327508 -0.16684686 -0.34307867 0.25633785 0.18658766 0.055022433 0.08312629
0.24622871 -0.011680621 -0.31641826 -0.2960414 -0.2537094 -0.5060349 -0.53963214 -0.2930168
-0.3436271 -0.5679949 -0.43386042 0.12643585 0.46466097 0.15636453 -0.077152796 0.10063882
0.06740803 0.029727045 0.07533615 -0.036931384 0.38310704 0.757995 0.4693098 0.24021576
0.5933558 0.52924716 0.13322192 0.15022358 0.16141327 0.062411755 -0.11003531 -0.10188286
0.23866805 0.2773407 -0.0011823754 -0.15668109 -0.16089407 -0.21676518 -0.2264854 -0.25410843
-0.3383963 -0.0148137715 0.24186024 -0.002536249 -0.2254474 -0.19361933 -0.25664893 -0.40057915
-0.24175726 -0.05865548 0.41583592 0.6242058 0.26931587 0.07585334 0.3177696 0.33278084
0.1771615 0.13059554 0.2582752 -0.06993858 -0.22060642 0.11636214 0.025232576 -0.03155339
-0.001338295 0.1496255 0.08830921 0.03303236 -0.1829655 -0.3813822 -0.23164345 0.14593343
0.001720355 0.1651164 0.3035497 0.17204817 0.10577184 0.0552404 -0.14764306 -0.08736555
0.28749725 0.049020484 0.1661544 -0.3463799 -0.479614 -0.42654318 0.12636006 0.093405366
-0.3210193 0.5634981 0.48209998 -0.017066823 0.11563801 -0.1292962 -0.07402286 0.2294248

bn.weight f4 [16]
00000000: 3878 493f 6953 1a3f c2ad 443f 4c48 783f
00000010: 940b 863f 11d4 593f f2b1 2c3f f86d 133f
00000020: 6136 203f 6225 393f 4154 ca3f 243d 2a3f
00000030: 565f 253f a01c 7b3f 2333 163f 5422 1c3f
0.78699064 0.60283524 0.76827633 0.96985316 1.0472283 0.8508921 0.67459023 0.57589674
0.62582976 0.72322667 1.5806962 0.66499543 0.64598596 0.98090553 0.5867178 0.6098988

bn.bias f4 [16]
00000000: 1754 0a3d af70 693d 4cd0 afbe 5a2f 73bc
00000010: f881 fe3e 4796 cebe b7b4 b83e cae5 d03e
00000020: 556a 03be d38b ca3e 457f 3a3f 84aa c4bd
00000030: 8268 cabd 3d31 d33e c97b 33bd 3000 1fbe
0.0337716 0.05699223 -0.34338605 -0.014842832 0.49708533 -0.40349028 0.36075374 0.40800315
-0.12833531 0.39559802 0.7285045 -0.09602836 -0.098832145 0.41248503 -0.043819223 -0.15527415

bn.running_mean f4 [16]
00000000: 126c f43e af3b abbc d24e 633e 1cc7 96be
00000010: 53e0 1dbe 7736 5fbf 339b 3c3e 7a94 b23c
00000020: df46 d03e f7bf 43bc 1fb2 823d 198a 233f
00000030: c2d9 26bd 2be0 b0bd a7c0 f33e 5402 15bf
0.477387 -0.020902483 0.22198036 -0.29448783 -0.15417604 -0.8719248 0.18418579 0.021799315
0.4067907 -0.011947623 0.0638163 0.63882595 -0.040735014 -0.08636507 0.4760792 -0.5820668

bn.running_var f4 [16]
00000000: 50b4 073e 02b8 e93d 4a4c db3d fda0 113e
00000010: e24c 903e 6cc3 6e3e 6283 c53e de11 9e3d
00000020: 0680 973d 5cd0 5f3e 056d dd3e 1bef 493e
00000030: 3138 1a3e 6cb0 893e 7e47 eb3d f800 3d3e
0.13252378 0.1141205 0.1070791 0.14221568 0.28183657 0.23316735 0.385768 0.07718252
0.073974654 0.21856827 0.43247238 0.19720118 0.15060498 0.26892412 0.114882454 0.18457401

layer1.0.conv1.weight f4 [16, 16, 3, 3]
00000000: 3017 dabd fdae 8dbd e4f3 1bbe b5fa ba3c
00000010: 4bcb 57bd cff7 90bd db10 d43c a852 c03c
00000020: 82a4 eabc 8c24 e03d 92f5 553d 3890 463d
00000030: 2493 163e 52b6 4d3d dec3 9a3c 7853 db3d
00000040: b768 c13d 91fe 4d3c c680 ee3c 967a b83b
00000050: bfd3 ad3a 81ae b83c f266 213d a346 923c
00000060: e2c0 38bd e85a 353c 3f3b 14bd 6cad 8cbd
00000070: 8a19 ecbc 7143 0fbb b885 25bd fbd9 bebd
00000080: 1158 0dbd fea3 b7bd ba1f eebd 5d6c d3bd
00000090: db5b aa3d 3b14 853d 3768 db3c fe24 923d
000000a0: 9622 5c3d 8aab d2bc 1b64 03bd bb9f 373c
000000b0: 757e 90bd 0b53 7a39 ceab 813d 77ab 9a3d
000000c0: 938c c23d 627b a53d eaff 373d 9f61 223d
000000d0: b79c 813c 96ae 93bc 56d1 7dbd 1b29 aebd
000000e0: 5fd9 3abd a2c2 353c 38f7 683b 8cb7 38bc
000000f0: d32d 403c 8528 e73c 654d 61bb dbd2 1a3d
00000100: ee99 bc3d d488 cf3d efb4 f73d 35e0 0e3e
00000110: bc33 0c3e 5e2a 823d c8b4 ee3d bd80 193e
00000120: 0871 8e3c 7d12 c73c 4569 84bc 026f 23bd
00000130: 337e 023c 106e 1b3d 8072 ab3d 950f 893d
00000140: 1be1 203e 5307 2abd 7843 fa3c 928b cd3c
00000150: f901 5d3d 5a60 923c 0925 e63d f630 cabc
00000160: 63bd 4a3c 6cdc 183d 1696 c43c 085c 0d3e
00000170: f7e6 153e 9570 c6bd 7738 5f3d 6d96 a03d
00000180: 5817 b9bd 97da d7bc c787 873b 8108 ed3d
00000190: 0816 143e be2d 433e 73a5 623e 2840 553e
000001a0: 5330 1b3e 6a28 113e 66f6 fd3d 0bde 573e
000001b0: e172 12bc 36cf 8d3d e4fe 3d3d 9204 523d
000001c0: c4e5 063e bb2e b93d 05a3 0e3d 7d2d 983d
000001d0: 3b29 893d 256b 05be 3a78 1abe 3a21 08be
000001e0: fff6 ccbd f65b c5bd 3990 21be d58b 2abd
000001f0: 6cf6 21bc d073 81bd 4877 b03d a071 023e
00000200: bc01 c53d 5359 463e ab0a 0f3e 4553 823d
00000210: 37d8 cf3d feae c73d 5b86 433d 0206 ddbc
00000220: 3984 c439 5c12 88bc a629 02bd 50af 53bc
00000230: 3f4b 89bc 17e9 6a3a 1b3f 4a3d 9fca 02bd
00000240: 633d 93bd bdd5 073c 78f1 853d 8e52 42bd
00000250: b38a a3bd 9d6c 89bd 6639 dd3c 64f1 8f3d
00000260: 6954 0e3d 56b6 91bd f56b 0fbe 3243 7fbd
00000270: 170a 03bc 1ed3 6d3c 4d34 123e cf21 313d
00000280: 9afd 07bd f73e 983d 0273 313b 89d3 c9bb
00000290: bc6d 3a3d 1934 61bd c338 4c3d 250d a0bc
000002a0: 7c86 f7bd 723e 85bd c789 78be 2db7 793d
000002b0: 548a a53e 417f 5cbe a6f9 44be 9f81 483e
000002c0: 00ac dabd 2bdc f0bd 7138 ecbc db27 653e
000002d0: f1f2 7dbe 384e 463e 0aa5 a03d 7f6a dfbe
000002e0: a444 4f3d 8d3d 1d3e bbfd 4cbe 178c d43d
000002f0: a5a1 383e 0609 853c bb19 2ebe 2d13 00be
00000300: c557 81bb 3a6a f3bd 684d b6bd fa2f b23d
00000310: 2e6d 0f3e 5a10 283e fd56 98bd e9f8 463d
00000320: b944 973d 5931 97bc b6ff a4bd bb48 94bc
00000330: e4f5 28be 0d88 5fbe 8352 26be d062 9c3d
00000340: 177d 28bd f466 66bd efe6 e43d 49a5 06be
00000350: ead8 38be e534 c33c 0977 033e a9ef 973d
00000360: 9ced e03c cb25 213d 77cc dd3c d81f 62bb
00000370: 3631 333e cd56 c53d d4c3 67bd 51e8 90bd
00000380: eac9 09be f7cd 813c 38c6 a1be a5b2 96be
00000390: eab5 3f3e 0104 903b d403 acbd b37d 92bc
000003a0: cc3b c23d ccf4 003e cecf d6bd df70 8d3e
000003b0: 34a5 2e3c b114 493e 130e e13e 6ef1 d8be
000003c0: 0c82 d7bd 70d1 69bd 9059 22be 9edb c13d
000003d0: c4ad fdbc 6d66 b83c ba0c d23c 8c1e 233c
000003e0: ac79 b13d 97d0 73bd 168e e6bd d132 93bc
000003f0: 9673 a3bd 0ad4 24be fccc 5fbe 1537 cabd
-0.10648954 -0.06918142 -0.15229756 0.022824625 -0.05268411 -0.07078516 0.025886944 0.023476914
-0.028642897 0.10944471 0.052236147 0.04847738 0.14704567 0.050222702 0.018892225 0.1070928
0.09443801 0.0125729 0.029114138 0.0056298478 0.0013261958 0.022544147 0.039404817 0.017855948
-0.045105822 0.011069037 -0.036189314 -0.06869015 -0.028820772 -0.0021860267 -0.040410727 -0.0931892
-0.034507815 -0.08966826 -0.11627145 -0.10323403 0.08318301 0.06497999 0.026783092 0.07135962
0.05374392 -0.025716562 -0.03207789 0.011207516 -0.0705537 0.00023872794 0.06331597 0.075522356
0.09499469 0.08080174 0.044921793 0.03964388 0.015821798 -0.018027585 -0.061967216 -0.08503934
-0.045617457 0.011093767 0.0035547744 -0.01127423 0.011729675 0.028217563 -0.0034378406 0.037798744
0.09209047 0.1013352 0.12095057 0.13952716 0.1369161 0.06355737 0.11655575 0.14990516
0.017387882 0.024300808 -0.016163478 -0.039900787 0.007964659 0.03794676 0.083714485 0.06692425
0.15710871 -0.04151089 0.03054975 0.025090966 0.05395696 0.01786821 0.11237533 -0.02468155
0.012374255 0.037319586 0.023997348 0.13804638 0.14638887 -0.09689442 0.05449721 0.078411914
-0.090376556 -0.026349349 0.004136059 0.115738876 0.14461529 0.19060418 0.22133426 0.20825255
0.15155153 0.14175573 0.124005124 0.21080796 -0.008938522 0.06924288 0.04638566 0.05127389
0.13173586 0.09042116 0.034823436 0.07430551 0.06697317 -0.13029154 -0.15084925 -0.13293925
-0.10008048 -0.09636681 -0.15777673 -0.04163726 -0.009885412 -0.063209176 0.08616501 0.12738657
0.096194714 0.19370012 0.13968913 0.06363539 0.101486616 0.09750174 0.047735553 -0.026980404
0.00037482547 -0.016610317 -0.031778 -0.012920216 -0.016759513 0.00089611247 0.04937659 -0.031931516
-0.07189443 0.008290705 0.06540197 -0.04744201 -0.07985439 -0.067101695 0.027004909 0.070284635
0.03474847 -0.07114856 -0.14006026 -0.06231994 -0.007998011 0.014515666 0.14277764 0.043245133
-0.033200838 0.074338846 0.0027076607 -0.00615925 0.045514807 -0.054981325 0.04985882 -0.019537518
-0.12086198 -0.06506051 -0.24271308 0.060965706 0.32332098 -0.21532919 -0.19235858 0.19580697
-0.10677338 -0.11760744 -0.028835507 0.22378485 -0.24799706 0.19365776 0.07843979 -0.43635938
0.05060257 0.15355511 -0.20018665 0.103782825 0.18030412 0.016239654 -0.17002003 -0.12507315
-0.0039472305 -0.118854955 -0.08901483 0.08700557 0.14006492 0.16412488 -0.07438467 0.048577223
0.07386155 -0.018456148 -0.080565855 -0.018101087 -0.1650005 -0.21829243 -0.16242413 0.076360345
-0.04113492 -0.056250528 0.111768596 -0.13148989 -0.18051496 0.023828933 0.12838377 0.074187584
0.027457051 0.039342683 0.027075035 -0.0034503844 0.17499241 0.096356966 -0.05658324 -0.07075561
-0.1345593 0.015845282 -0.3159654 -0.2943317 0.18721738 0.0043950086 -0.08399168 -0.017882204
0.094840616 0.12593383 -0.10488854 0.27625176 0.010659505 0.196368 0.4395605 -0.42371696
-0.10522851 -0.0570845 -0.15854478 0.09465717 -0.030966647 0.022509778 0.025640834 0.009956013
0.08665785 -0.0595251 -0.112575695 -0.017968567 -0.07981031 -0.16096511 -0.21855539 -0.09873787

layer1.0.bn1.weight f4 [16]
00000000: 8572 bd3e 4580 643f ff74 3b3f f4e5 313f
00000010: 4f6a 0f3f 2e47 243f 1ea5 5a3f 0abd 2d3f
00000020: 9657 523f 4d63 3d3f f480 3b3f c996 1b3f
00000030: e2ae 123f 2517 0b3f 2798 123f bb94 323f
0.37001434 0.89258224 0.73225397 0.69491506 0.5602159 0.6417111 0.854082 0.67866576
0.82164896 0.73979646 0.7324364 0.60776955 0.572981 0.5433219 0.57263416 0.69758195

layer1.0.bn1.bias f4 [16]
00000000: 9866 9ebe b867 a43e b71c b9bd 5bb9 923e
00000010: f961 42bd 1ea3 54bc 41aa 093f dbc9 5b3e
00000020: ed7a 66be 0cd5 2dbe 3628 9cbe 9f58 27be
00000030: f8b8 b8bd 5e24 5bbe 915e d83c 0ad2 a8bd
-0.30937648 0.3211038 -0.0903868 0.2865704 -0.047456715 -0.012978343 0.5377541 0.2146372
-0.2250783 -0.16975802 -0.3049943 -0.163424 -0.09019655 -0.21400592 0.02641228 -0.08243187

layer1.0.bn1.running_mean f4 [16]
00000000: b69c 5c3f c51a 91bf 37db 71bf 21c8 af3e
00000010: 1f0a 8c3e f9db 38bf 68ad adbf c5bc b4bf
00000020: 8743 08bf e3f2 43bf 1542 20c0 e555 f43f
00000030: c925 c1bf b965 7b3f 93ef 5b3f 3e28 9d3f
0.8617662 -1.1336294 -0.9447512 0.34332374 0.27351472 -0.7221065 -1.3568544 -1.4120108
-0.5322804 -0.7654249 -2.5040333 1.9088713 -1.5089656 0.9820209 0.85912436 1.2277906

layer1.0.bn1.running_var f4 [16]
00000000: b01f 1140 3c63 4440 83f0 b43f 4710 d13f
00000010: c57d 983f b365 f23f 84c8 3540 7236 dd3f
00000020: 7b1f 2b40 16b6 0440 ae53 1040 a44f a23f
00000030: 62d3 5d3f 937d 2e3f 6aa8 b13f 0069 ea3f
2.267559 3.0685568 1.4135898 1.6333092 1.1913382 1.8937286 2.8403635 1.728224
2.6737964 2.0736136 2.2551074 1.2680554 0.8665067 0.6816036 1.3879521 1.8313293

layer1.0.conv2.weight f4 [16, 16, 3, 3]
00000000: 3635 8f3d 0ad1 cc3d d960 913d 20af ae3c
00000010: d107 713d 2fd9 cabb 2338 79bb c8e9 aa3c
00000020: be58 99bb 3616 ca3d 0033 01be b12a be3d
00000030: 09de 3abd 234b dabd 6247 ad3b f111 f23d
00000040: f427 093e 6cce 053d 9183 ae3d c89f cd3d
00000050: 6140 c93d 4a10 6a3d 6b29 053e b548 613d
00000060: 7ec8 c3bd 7d5c ecbd a229 09be ced9 9d3d
00000070: 748e aebd 26cd 68bc ab40 d8bd 88f2 5fbd
00000080: 4a63 6abd 12d4 c9bd 9d1b ab3b 0aeb e5bc
00000090: e668 1cbe f63a 15be 89d2 f2bd fb34 12bc
000000a0: 6140 2f3d 5201 943d bda1 fdbd 8a0b dfbd
000000b0: 434b 14bc 512a 9cbd 84cd 17bd c7f6 0ebe
000000c0: d43f b2bc 1447 36bd 58f0 2fbe aa4a da3d
000000d0: 6d24 82bc 0e7a 95bd bb13 07be 54e6 33be
000000e0: a9e3 62be c14a bfbc 7680 e93d 1341 3f3d
000000f0: 166d aabd 837e 7cbe fc9d 09bc 1987 073c
00000100: 1280 5cbd 5ede e93b 3f50 ba3d 2ddf c83a
00000110: a28e 313d e61a 86be a239 8dbd 8ad1 a1bd
00000120: acb5 a33c d17e 22bd 6e27 04be ae29 1abe
00000130: 34a1 ebbd 10df a3bd 6325 6fbe c456 51be
00000140: 3a56 ccbc c6ac f4bd 9865 1abe 5f0d b1bd
00000150: 19da d6bd 16ba 24be 564b b8bd ffe9 e3bd
00000160: 9e8d f2bd 83ad b4bc 8049 923d 8242 a53d
00000170: 74f1 563d dc98 183d 9e07 0a3e 2c97 923d
00000180: 940f 62bc c1fa 2f3d e479 6a3d 8316 86bd
00000190: d370 02bd 7f04 8bbd fdff a7bd 0a98 0dbd
000001a0: 8c55 5fbd dcb9 e23c b47b c5bc 43ee 12be
000001b0: 36cd 1a3b 22b2 87bd fa25 1b3c 61da 12bc
000001c0: af30 98ba ecd8 eb3c f18e 11be 2327 c2bd
000001d0: 59fc acbd aabd 1abd afc4 cdbc 177c 15bd
000001e0: 6e74 a83c 84b8 5ebd 5f9d a6bd bfd1 84bb
000001f0: 5cc8 efbc c5a8 a6bd 8a37 273d ed45 f33c
00000200: e1a9 853c 1771 77bd 52b6 98bb 743f 6bbc
00000210: f865 96bd a1f1 15be df87 f1bd da09 893d
00000220: af6f fd3c 3e5c 81bd 63d7 e5bc 4f1b f33c
00000230: 960a efbc adf2 13be 6bdc a1bd f09c 6fbd
00000240: 14f0 84bd df2d cbbd 732e e7bd 41dc 93bd
00000250: 8f30 e0bd c451 8ebd c158 243d ec47 10bd
00000260: bba5 a4bd c15b c33d 3cc0 773c aed0 f73c
00000270: d07b b0bd fe05 d0bd 1d32 093e 98f0 08bd
00000280: 4460 453c cbed 483e e99c 73bd 2cc0 95bd
00000290: 404b c23d 5185 deba b363 09bb 6606 8b3d
000002a0: 6138 1c3d 7c08 2e3d 9e01 07bd 214c 38bc
000002b0: d5d7 b4b9 9242 e63d 36c4 f3bd 72ee 5cbc
000002c0: aee4 f03d ffcb b3bd dbe2 b2bd 43c7 b83d
000002d0: f8e3 e7bd ad97 69bd e13d 343d 3732 2ebd
000002e0: efef 3bbd 5686 aa3b 8f23 893c 9236 863c
000002f0: 83f4 d7bd b63f 3eb9 931c 8a3d 8357 0b3e
00000300: 4579 913b 220a 1e3d 9815 0b3d edc3 203b
00000310: c2f2 c2bc e0f5 b73d fa8f 48be 3f62 2fbe
00000320: 0e90 1b3e 17d3 283d 0716 79bc 61cb 23bc
00000330: b6ae cc3d ee81 a43d ba2e 0ebe ba22 5bbc
00000340: 9ca5 24bd eaf0 203d 2729 e3bd 9250 9ebd
00000350: 7337 d63c 1434 99bd 5ea5 a6bc 471d a4bd
00000360: 92bf f3bd faa2 683d 9203 00be 54db eabb
00000370: 346a 2cbb 92da 29be 48a9 2cbd 5baf 86bd
00000380: 35ff 0dbe 7f5b 0cbd 4d5b 813d ba5b f03d
00000390: 1ef4 50bd 5332 edbd 7636 72bb 6747 12be
000003a0: 9f9f e7bd 4a3f 5fbd 85e7 92bc a955 60bd
000003b0: cefd c93c 3b17 673d 7190 b23d 3907 393d
000003c0: a3c0 323d 0ca0 de3d 4ce5 bd3d 477c 5cbd
000003d0: 5df4 8e3c 8f1c be3c 2e96 213a b3e5 eb3d
000003e0: b8b1 423c aed1 3d3d 541c d93d 12b7 393d
000003f0: 7793 29bc 3faa 89bd 531c 50bd 68cf d4bb
0.06992571 0.100008085 0.0709855 0.02132374 0.058845345 -0.006190441 -0.0038027845 0.020863429
-0.0046797683 0.09867518 -0.12617111 0.092854865 -0.045621905 -0.106588624 0.0052880505 0.11819828
0.13394147 0.032667562 0.08521188 0.100402415 0.098267324 0.05714444 0.13004081 0.05500098
-0.09559725 -0.11541078 -0.13394788 0.077075586 -0.085232645 -0.014209067 -0.105592094 -0.054674655
-0.057223596 -0.09854902 0.0052217976 -0.028066177 -0.1527439 -0.14573273 -0.11856563 -0.008923764
0.042786006 0.07226814 -0.12384365 -0.10890873 -0.009051147 -0.07625259 -0.03706123 -0.13961326
-0.021758951 -0.04450138 -0.17181528 0.10658772 -0.01588651 -0.07298671 -0.1319112 -0.17568332
-0.22157158 -0.023351075 0.11401455 0.04669292 -0.08321588 -0.24657635 -0.008399483 0.008271956
-0.053833075 0.007137104 0.09097337 0.0015325301 0.043348916 -0.26192397 -0.06895758 -0.079012945
0.019984089 -0.039671723 -0.12905666 -0.15054962 -0.115053564 -0.0800153 -0.23354106 -0.20443255
-0.02494346 -0.119470164 -0.15077817 -0.086451285 -0.104908176 -0.16086611 -0.08998744 -0.111286156
-0.118434176 -0.022055393 0.07142925 0.08069326 0.05247636 0.037255153 0.13479468 0.0715774
-0.013797659 0.042963747 0.05724515 -0.065472625 -0.03184588 -0.06787967 -0.08203123 -0.034568824
-0.054524943 0.027676515 -0.024106838 -0.14348702 0.002362085 -0.06625773 0.009469504 -0.008963198
-0.0011611189 0.02878996 -0.14214684 -0.09480121 -0.08446569 -0.037778534 -0.0251182 -0.036495294
0.02056333 -0.054375187 -0.08135485 -0.004053324 -0.029270343 -0.08137659 0.04082445 0.02969643
0.016316356 -0.060410585 -0.004660406 -0.01435839 -0.07343668 -0.14642955 -0.117934935 0.06691332
0.030937044 -0.06316422 -0.028056806 0.029676108 -0.029179852 -0.14448042 -0.079033695 -0.058499277
-0.06491104 -0.099208586 -0.11288156 -0.072197445 -0.10946762 -0.06949189 0.040123705 -0.03522484
-0.08039423 0.09538985 0.015121516 0.030250873 -0.08617365 -0.10157393 0.13398023 -0.033432573
0.012046877 0.19621961 -0.059475813 -0.073120445 0.09487009 -0.0016976987 -0.0020963966 0.0678833
0.038139705 0.04248856 -0.032960527 -0.011248619 -0.00034493083 0.11243166 -0.11902659 -0.013484584
0.11762367 -0.087791435 -0.087346755 0.09022381 -0.113227785 -0.057029415 0.044004325 -0.042528357
-0.045883115 0.0052040024 0.016740588 0.016383443 -0.10544684 -0.00018143546 0.06743731 0.13607602
0.0044395053 0.038583882 0.03395614 0.0024530843 -0.023797397 0.08982444 -0.19586173 -0.17127322
0.15191671 0.041216936 -0.015203006 -0.00999722 0.09994261 0.080325946 -0.13885012 -0.013374979
-0.040197 0.039292254 -0.110918336 -0.07730211 0.026149487 -0.07480636 -0.020342525 -0.08013397
-0.119017735 0.05679605 -0.12501362 -0.007167259 -0.002630842 -0.16587284 -0.042153627 -0.06576415
-0.13866885 -0.034266945 0.06316242 0.117362455 -0.05101406 -0.11581864 -0.003695873 -0.1428505
-0.11309742 -0.054503717 -0.017932663 -0.054769192 0.024657156 0.05641864 0.08718956 0.045172904
0.043640744 0.1087037 0.092722505 -0.053829458 0.017450506 0.023206977 0.0006164041 0.11518421
0.011883192 0.046342544 0.10601106 0.045340605 -0.0103501 -0.06721925 -0.050808262 -0.0064944513

layer1.0.bn2.weight f4 [16]
00000000: 1172 e33e 57b8 243f 759d 393f 9a93 2f3f
00000010: 9cf2 393f f73a 383f 7545 333f a054 ec3e
00000020: 2272 493f e588 0a3f a0a8 493f 8698 043f
00000030: f27c 363f 1068 453f 1cd5 413f c79c 1f3f
0.44422963 0.6434378 0.72505885 0.685846 0.7263582 0.71964973 0.7002786 0.46158314
0.7868978 0.54115134 0.78772926 0.5179523 0.712844 0.7711191 0.75715804 0.623486

layer1.0.bn2.bias f4 [16]
00000000: e1f3 32be e0e4 853d 88f1 acbe 94e8 893e
00000010: 8f55 92bb 5e0d 993d ffb8 b33e 2100 5abe
00000020: 308a b73d bc05 99bd a63a eabc ffa0 79be
00000030: 4a86 c13d 0a69 303e 0c1c f83d 10dc 593e
-0.17475845 0.06537795 -0.33778024 0.26935256 -0.004465766 0.07473253 0.35102078 -0.21289112
0.08961904 -0.07471797 -0.028592419 -0.24377821 0.09449442 0.17227569 0.121147245 0.21275353

layer1.0.bn2.running_mean f4 [16]
00000000: 327a abbf 6267 afbe c5f9 1ebd ff5b c9be
00000010: 9c6f 66bf 632e f4bf 99b7 dabe 9c65 98be
00000020: 0463 0dbf ac48 18bf ed68 abbf f353 e53e
00000030: 42e3 b4bf 4c99 0cbc cd20 b8bf eb50 d7be
-1.3396666 -0.34258562 -0.038812418 -0.39328 -0.9001405 -1.9076656 -0.427182 -0.29765022
-0.5522921 -0.5948589 -1.3391396 0.4479061 -1.4131854 -0.008581471 -1.438501 -0.42053923

layer1.0.bn2.running_var f4 [16]
00000000: 8aec 103f 897d 393f 2b73 343f fd48 863f
00000010: dd31 e63f 8a77 813f 9641 0640 6fd5 323f
00000020: cd7d 333f 515e 323f b628 f23f 3eb2 833f
00000030: 7850 853f 68e2 843f 042f 8e3f 5c01 b33f
0.5661093 0.72457176 0.7048823 1.0491024 1.7983967 1.0114605 2.097753 0.69856924
0.7011383 0.69675165 1.8918674 1.028877 1.0415182 1.0381594 1.1108098 1.398479

layer1.1.conv1.weight f4 [16, 16, 3, 3]
00000000: e0df 8dbd 9768 a33d de7f ba3d 29d3 51bd
00000010: 6eb6 763d 45ac 2e3e eaff 8d3c f441 143e
00000020: d0bc 493e 0a2f bdbd 1797 623b fecc 813d
00000030: 5365 1ebd 33b4 09bd 91e5 9fbd 4da6 7bbd
00000040: 7419 c8bc c99e e2bd b183 bd3c 7292 803d
00000050: 6f9a ff3d 3e5c af3c 6152 983b 9e08 203e
00000060: b62c 86bc f0da e4bb cd48 403d d573 f0bd
00000070: 9ad6 54bd 129b 1b3e 5abe 30bb 743b 00be
00000080: 29f1 443e 0ace ee3c 6bb5 17bc 8587 3c3e
00000090: fb5c e73d 991b 5d3d 2965 85bd 4bf2 583e
000000a0: 0ea3 543d daaf 4bbe aad5 b03d 518d 5fbd
000000b0: d2fa 41be 7415 a4bd 3a8b 083d 4c86 ee3d
000000c0: 47c3 a4bc 9022 c33c 3a1f e33d 71ef 84bd
000000d0: 2c17 a33d 7c88 f63d b687 b83c 14df 96bd
000000e0: 0d14 0bbe 44dc 933c e997 913b 502c 40bb
000000f0: e106 13bd 2436 a9bc 15d9 edbb 2910 89bd
00000100: 8d30 223d 3eae d93d 065e 8bbd 5578 263d
00000110: 0590 a03d bc1a 28bd 6cba 37ba 1635 1d3d
00000120: 6323 abbd 501a 0ebd f802 e03d 27fb aabd
00000130: 5497 08bc 0429 093e ed54 76bc fac5 0fbd
00000140: 8ad2 e2bb 27aa 39be dc54 0ebe e2db a2bc
00000150: baff 82bd 9ebd e8bd 0622 de3b 7734 90bb
00000160: 2ac9 e5bd f7bc 83bd 2c8e 8bbd 72a9 45be
00000170: d5c6 61be 4841 3fbe 52f0 53be 52eb adbd
00000180: f2d7 b5bd 1a91 b2bd 6f48 71bd b42a 92bd
00000190: 258c 7fbc b32f 17bc 21af 253c 5e23 453d
000001a0: 7f4f f93c abfa 5dbd 3116 593d 7d29 cb3b
000001b0: e976 9bbd 3aaf 913c 518f 523e 6fc8 25be
000001c0: c30a 2fbd 528d bc3d c495 b8bd 2f50 76bd
000001d0: 7a7f 85bc adf8 453e 9884 eabc b661 e5bd
000001e0: b3a3 853d 855d 09be bc4e e5bd c8cf a7bd
000001f0: 6bc2 eebb 9277 38bd d750 98bd 41da 9b3c
00000200: 32a2 263e 4d92 56bd 9cd9 023e b55e 713e
00000210: 30e1 623c 145d 9e3d 0bb3 5a3e 3adb 5e3d
00000220: be39 d53d b931 d63d 0ec7 943d 84de b7bd
00000230: f751 41bd 3ee5 363d 8200 52bd 65f4 2dbe
00000240: 8cfc 1e3d 8df2 fa3c cbeb 6f3d 6db5 9c3d
00000250: 06eb c73c 47f9 b83d cdd8 933d ecf3 443c
00000260: 57f1 253d 1af6 0e3d 8f68 fabc 986a 2cbb
00000270: 0b29 113d 8c06 a93a bbb7 a3bd ac6d b93d
00000280: 7fd5 d4bc 6309 063d 6bd9 b93d d545 9e3d
00000290: f228 993d 397f 803b c5db 803d b57f 1b3d
000002a0: 8d63 65bc 51a8 b33d d833 e93d 76e2 d6bd
000002b0: ade4 8b3d 4ed7 4dbe 1b94 c2bd dd42 f33d
000002c0: 5a43 69bd 7b34 c0bd 2ba4 973c 87d4 a1bd
000002d0: f0f8 023c 9bca cf3d 2e11 163d 79df 0fbe
000002e0: f7f1 1ebd 7f4e 083d 0195 f1bd ac47 b7bd
000002f0: 5e83 883d 8982 b03d 0d18 10bc b71f 833d
00000300: e2a3 1c3d 0a5b 23bd d004 08bd 6883 893d
00000310: eab9 3c3d 1ec3 253d 0835 93bc dda6 41bc
00000320: 2ec6 463d ea4a 75bd ef70 69bd d012 49bc
00000330: 56c8 03bd 775e 9ebc b67a 0f3e ea0a c63d
00000340: 6728 a83d c4fe d23d a415 063d 91e1 f73c
00000350: fbc7 4d3d d6c7 cb3b 9a3b 073d 8f8f 4e3d
00000360: ceea 243d a95b 793d 5bf6 b2bc a829 6a3d
00000370: 761f 473e 9543 c0bb 8758 063d c66d 9e3c
00000380: a5e8 48bd 084c 403d 64ca 413d 7e6f 24bd
00000390: e3d7 4f3d 839d 60bc 8c8d a5bc 783c ca3d
000003a0: b719 c73c 2559 15ba 459f b5bd 2368 fbbc
000003b0: 0fcd 2cbe 5ce0 27be 47ab d33d ef06 11be
000003c0: acd4 9dbd f44e e53d bf15 05be b529 173d
000003d0: 96da cb3c 67b7 853d 33cd 313d 7f90 433d
000003e0: 232d 6b3c 6186 2dbc 433f 87bd 7939 dcba
000003f0: 2411 ba3d 64ab 8e3c f613 88bd 9395 96bb
-0.069274664 0.07978933 0.0910642 -0.05122677 0.060232572 0.17057903 0.017333943 0.14478284
0.19700933 -0.092374876 0.003457492 0.06337927 -0.03867085 -0.033619117 -0.07807458 -0.061437894
-0.0244262 -0.11065442 0.023134084 0.06277932 0.12480628 0.02140629 0.004648492 0.15628287
-0.016378742 -0.006984107 0.04694443 -0.11740843 -0.051962472 0.15195873 -0.0026968927 -0.1252268
0.1923262 0.029150981 -0.009259562 0.18411072 0.112970315 0.053981397 -0.065134354 0.21186177
0.051913314 -0.19891301 0.08634503 -0.05457813 -0.18943337 -0.08011904 0.0333359 0.11646709
-0.020112647 0.023820192 0.1108994 -0.06490982 0.07963404 0.12037751 0.02252565 -0.073667675
-0.13581868 0.018049367 0.004443158 -0.0029323287 -0.035895232 -0.0206557 -0.007258544 -0.066925354
0.039597083 0.10628937 -0.06805043 0.0406421 0.078399695 -0.04104112 -0.0007008675 0.038380705
-0.08356359 -0.034693062 0.10938066 -0.08348685 -0.008336861 0.13394552 -0.015034896 -0.035100915
-0.006922071 -0.18131314 -0.13899559 -0.019880239 -0.06396432 -0.113642916 0.0067789583 -0.0044007855
-0.112200096 -0.064325266 -0.068142265 -0.1930292 -0.22048505 -0.18677247 -0.20697144 -0.084921494
-0.08879079 -0.08719082 -0.05890697 -0.07137051 -0.015597378 -0.009227681 0.010112555 0.048129432
0.030433415 -0.054194134 0.05299968 0.006200014 -0.0759104 0.01778375 0.20562483 -0.1618974
-0.042734873 0.09206642 -0.090129405 -0.060135063 -0.016296137 0.19333144 -0.028627679 -0.112002775
0.06525364 -0.13414581 -0.11196658 -0.08193928 -0.00728636 -0.045035906 -0.07437294 0.01902497
0.1627281 -0.052385617 0.12778324 0.23571284 0.013847634 0.07732597 0.21357362 0.05440829
0.10411404 0.104587026 0.07264529 -0.08977988 -0.04719731 0.044652216 -0.051270016 -0.1698776
0.038815066 0.030633235 0.05857448 0.07651792 0.02440406 0.09031921 0.07219086 0.012021046
0.040513363 0.03490267 -0.030567436 -0.0026308652 0.035439532 0.0012895628 -0.07994028 0.090541214
-0.02598071 0.032723796 0.09074672 0.07728163 0.07478513 0.003921416 0.06291918 0.037963588
-0.014000786 0.08772338 0.113868415 -0.10492413 0.06830726 -0.20101663 -0.09500905 0.118779875
-0.056948997 -0.0938501 0.018510899 -0.079018645 0.007993922 0.10146066 0.036637478 -0.14050092
-0.038804974 0.033277985 -0.11795998 -0.08949217 0.06665681 0.086186476 -0.008794797 0.064025335
0.03824223 -0.039881743 -0.033207715 0.06714517 0.04607574 0.04046928 -0.017969623 -0.011819568
0.048528843 -0.059885897 -0.056992467 -0.012272552 -0.032173477 -0.019332154 0.14011654 0.096700504
0.08210831 0.10302499 0.03273548 0.030258926 0.050239544 0.0062188907 0.033015825 0.050429877
0.04026299 0.06087843 -0.021845987 0.057168633 0.19445595 -0.0058674314 0.03279927 0.019339453
-0.049049992 0.04694751 0.047312155 -0.04014539 0.050742995 -0.013709429 -0.020209096 0.09874815
0.024304254 -0.00056971825 -0.08868269 -0.030689305 -0.16875099 -0.1639418 0.10335403 -0.14162801
-0.077065796 0.111967 -0.12996577 0.03690501 0.024884503 0.06529122 0.043408584 0.047745224
0.014354023 -0.01059112 -0.06603863 -0.0016801796 0.090853006 0.01741571 -0.06644432 -0.0045954674

layer1.1.bn1.weight f4 [16]
00000000: 0933 453f 89f7 0b3f 036e 2c3f c180 033f
00000010: 726e 163f ec90 503f a0c4 453f 2464 103f
00000020: c5dd 453f 71e7 143f 04e8 183f d3bc 1b3f
00000030: 187a 263f 5db4 153f 1220 4f3f 4855 3b3f
0.77031 0.54674584 0.67355365 0.5136834 0.58762276 0.81471133 0.7725315 0.564028
0.7729152 0.5816565 0.5972903 0.60835 0.6503005 0.5847834 0.8090831 0.73177004

layer1.1.bn1.bias f4 [16]
00000000: 766d 9bbc 7ac2 90bd 6eec 2fbe 76f3 2fbe
00000010: df38 19be b074 8c3d 7cb3 d5bd 7fe7 8bba
00000020: ecb3 5c3e 4901 3ebe 21ea f1bd 0616 3bbe
00000030: fb02 e9bd c424 cebe 6458 703d 311f 1f3e
-0.018973093 -0.070683435 -0.17180035 -0.17182717 -0.14963101 0.06858194 -0.104346246 -0.001067385
0.2155301 -0.18555178 -0.11812235 -0.1827012 -0.113775216 -0.40262425 0.058678046 0.15539242

layer1.1.bn1.running_mean f4 [16]
00000000: e081 abbf 0ae9 df3e 779c 6d3e 893a 2b3f
00000010: 77ed 39bf 094d b23e 7ab9 dabf 2658 f63f
00000020: ccda 33bf 8268 9cbe 4354 d0bd a35e 1a40
00000030: a1f7 b53f 4f82 cebe 9158 dabf 814f 3cbf
-1.339901 0.43732482 0.23204218 0.6688619 -0.7262797 0.34824398 -1.7087853 1.9245651
-0.7025573 -0.30548483 -0.10172322 2.4120262 1.4216195 -0.40333793 -1.7058278 -0.73558813

layer1.1.bn1.running_var f4 [16]
00000000: 23e6 6940 5bf4 ad3f fb6a 4540 db1f aa3f
00000010: 3fc1 2440 f830 a140 86ed b540 8d52 b03f
00000020: 4233 5e40 df77 c83f 8819 1340 f2da 4940
00000030: 8e5e 1b40 7e4f 0e40 61bb 9740 9bbb 6740
3.6546714 1.3590196 3.0846546 1.3290972 2.5742948 5.0372276 5.6852446 1.3775192
3.4718785 1.5661582 2.2984333 3.1539884 2.4276462 2.2236018 4.7416234 3.6208255

layer1.1.conv2.weight f4 [16, 16, 3, 3]
00000000: 1293 01bd 1d32 0abd 8b6a 0ebe c84f 2fbe
00000010: 0ee7 fdbd 2be2 83be 5883 e9bd bb2e 58be
00000020: 366c 73be 1b25 6ebd a53c 2cbd 7b30 86bd
00000030: 5d5a 0bbd 3c1f a9bd 9371 5bbd 1f51 a2bc
00000040: f526 3d3d 376e 643c 7f80 b2bd 164d 3dbd
00000050: cc2f 6fbd 4a6f 733d 9a5c 063e 7f32 073d
00000060: bf7d ef3d ceb8 cb3d 7c4c 763e 32ca 33bd
00000070: 1009 8ebd f3cd 29be be49 98bd a215 c3bd
00000080: 8fec fcbd 7daf 11be 2aa8 cbbd 2ddd 9fbd
00000090: 3e1a 63bc b7db ccbd c35b edbd 1e1c d5bd
000000a0: ecfa 00be a043 37be 6e0b 18be 5382 16be
000000b0: a1bb 4ebe a435 25be 66c8 0dbd 2895 2ebe
000000c0: d149 25be a547 56be dac8 a23b 4d4f db3b
000000d0: e413 96bd cf37 18bd 91da 983d 32d6 a93d
000000e0: 726f 603d a800 dabc a776 b33b 8c95 773d
000000f0: fcc0 90bd f6f1 f7bd d120 b8bd 0b72 7e3a
00000100: 85a9 9fbc e67a ecbd 6f43 96bd 68f1 fcbc
00000110: a423 40be bfbf 223d 8c49 6abb e1e9 33bd
00000120: 3e85 40bd cd6d cf3d 9822 b73c 6a83 8f3d
00000130: f669 263d eba2 873d 674c 513e 41eb eb3d
00000140: e55c 4d3e a5f5 783d 5224 033b c551 b7bc
00000150: 2e9b e43d a0d3 e93d 86bf 933d 1b91 d1bc
00000160: 7108 02bd 0ba9 08bd 28fc 07be 878e 0dbe
00000170: c1a6 edbd 2a23 ffbd 1c80 87bd 66ff 873c
00000180: 565a 563d 634d 013d 0076 733d c983 35be
00000190: 9af6 36be a962 6ebe 65ac 3ebe 16f7 86be
000001a0: 192e 17be a7b1 6bbd 36be 17be 042a a9bd
000001b0: a505 d9bc 76d5 f3bd 35ee dfbd f68d b9bb
000001c0: 76b1 2c3c 43c9 14be 5a12 a2bc f43d af3d
000001d0: cde7 a03d 8800 d6bd 748b 1dbe 438b 18bd
000001e0: b581 19be a25d fcbd db70 63bd 638d d5bd
000001f0: e853 26be 8f10 3bbe 23af 91ba 5f43 dc3c
00000200: 46fb 32bc 5562 e4bc 521f c5bd f089 eb3d
00000210: 7c79 b33d dac7 89bc 167a 073e b194 8c3d
00000220: 0ef5 2c3e bb0d fb3c 1f93 a6bc be36 fcbc
00000230: ea0f 86bd a251 2d3d 2703 b93b f18a 1a3d
00000240: 2867 ccbd bda1 fbbd d25a 27be 6b7c a1bd
00000250: 1a23 783a 810f debd b21b 3dbd 95a6 79bd
00000260: 5a77 e7bd 9098 e5bd 4bfc febc 9741 11bd
00000270: 2b9a bfbd 13d5 903c a34b 053d 26b5 fcbc
00000280: da34 6cbd e6b2 abbd 217f 1dbd 49ae f1bd
00000290: 526e e6bd a975 a73d 26e6 183e a59e b53d
000002a0: 0b8b b9bc 5a62 353d 0380 423d ad91 53bc
000002b0: 724e 13be 00a8 8f3c e922 ea3b 5179 c4bd
000002c0: 0b32 50bd 6e46 1bbd 6df4 e9bd 1c52 80bd
000002d0: 9c63 2dbd 9e03 bfbc 374c 9fbc ba01 f63b
000002e0: 24a0 a0bd 519e e9bd db86 103d e990 d1bd
000002f0: 19e9 b2bd 4598 35bb d994 52be 57da 3fbd
00000300: 1bf2 a0bd 5ce5 9dbd c07b ff3c 7728 293d
00000310: 86be 363b a059 293e f489 d3bd 669f a93c
00000320: 8b18 933d 523c 283c d88d 7b3d a2f5 593e
00000330: 27d5 7ebd 825f b83d 2133 543e 459d 05be
00000340: 2d83 38be 71d8 3abe 33e1 50bd ab20 f5bc
00000350: f877 4dbe c482 943d 625e c13d 50f8 fbbd
00000360: 1d9d 2fbd a4ed 863d 2936 6b3d ad05 92bd
00000370: 5c3b 9bbb 3039 c8bc fd78 4b3e df1d 683d
00000380: 6f85 b23d 9979 ca3d d5ac 2c3d f970 f8bc
00000390: 31de 003e 8cb6 613d 0f9a 313d 0a55 f73c
000003a0: 7f42 cf3a 288d d1bc 91bf 4fbe 2156 80bd
000003b0: 5e70 bbbc c540 3ebd b035 783c f920 9d3d
000003c0: b6b1 f2bd cf67 29bb 49f7 093e 29df 22be
000003d0: 8786 12be 213c e4bc 48f4 b7bd 6b7a 15be
000003e0: 1e5e 84bc e61e 0bbe e4dd c4bd 2c89 f73a
000003f0: 6d8c 43bb 5e5f 33bd bed9 173c 0701 663d
-0.031634398 -0.033739198 -0.1390783 -0.17120278 -0.12397586 -0.2575849 -0.11402005 -0.21111576
-0.23771748 -0.058140855 -0.042050023 -0.06552216 -0.034021724 -0.082579106 -0.05357511 -0.019814072
0.04617973 0.013942293 -0.08715915 -0.046216093 -0.058395192 0.059432305 0.13121262 0.03300714
0.11693906 0.09947358 0.24052614 -0.043894 -0.06935322 -0.1658247 -0.0743594 -0.095256105
-0.123498075 -0.142271 -0.09944184 -0.07805858 -0.013861237 -0.10002845 -0.11589768 -0.104057536
-0.12595719 -0.1789689 -0.1484811 -0.14698152 -0.20188762 -0.16133744 -0.034614943 -0.17049086
-0.1614144 -0.20925768 0.004967791 0.006692803 -0.073280126 -0.0371626 0.07463563 0.08292808
0.054793783 -0.026611641 0.005476791 0.060445353 -0.07068059 -0.12106697 -0.08990634 0.0009706325
-0.019490013 -0.115468785 -0.07337081 -0.03087683 -0.18763596 0.039733645 -0.0035749404 -0.043924216
-0.04700207 0.10128365 0.022355363 0.07007487 0.040628396 0.06622871 0.20439301 0.115194805
0.20054968 0.06078114 0.0020010662 -0.022377858 0.11162411 0.114173174 0.072142646 -0.025581887
-0.03174633 -0.033364337 -0.13279784 -0.13823901 -0.116040714 -0.12457879 -0.06616232 0.016601276
0.052332245 0.031567942 0.059438705 -0.17726053 -0.17867509 -0.23279823 -0.18620451 -0.26360387
-0.14763679 -0.05754247 -0.14818653 -0.08259967 -0.02649195 -0.11905949 -0.10934106 -0.005662675
0.010540357 -0.145299 -0.019784141 0.085567385 0.078567125 -0.1044932 -0.15385228 -0.037242185
-0.14990886 -0.123225465 -0.05552755 -0.10427358 -0.16242945 -0.18268035 -0.0011114817 0.026887594
-0.010924166 -0.02787892 -0.096251145 0.11500919 0.08763406 -0.01681893 0.13230166 0.06864298
0.16890356 0.030646196 -0.020333825 -0.030787822 -0.06546004 0.04231418 0.0056461277 0.03773016
-0.09980613 -0.122867085 -0.16343239 -0.07885059 0.000946568 -0.10842801 -0.04616899 -0.06094988
-0.113020614 -0.112107396 -0.031126162 -0.035462942 -0.09355577 0.017679727 0.032542836 -0.030848097
-0.05766759 -0.083837315 -0.038451318 -0.118008204 -0.11251511 0.08176739 0.14931545 0.0886815
-0.022649309 0.04428325 0.047485363 -0.01291315 -0.14385393 0.017536163 0.007145275 -0.09593452
-0.050828975 -0.037908964 -0.11423574 -0.06265661 -0.042331323 -0.023317154 -0.019445522 0.00750753
-0.078430444 -0.114071496 0.03528486 -0.102327175 -0.08735866 -0.0027709168 -0.20564593 -0.046839084
-0.07858678 -0.077097625 0.031186938 0.041298356 0.0027884557 0.16538095 -0.10329047 0.02070589
0.071824156 0.010268288 0.06141457 0.21285108 -0.062214997 0.09002592 0.20722629 -0.13048275
-0.1801879 -0.18246628 -0.050996017 -0.029922804 -0.20065296 0.07251504 0.0944183 -0.12303221
-0.042874444 0.06588295 0.057424698 -0.07129989 -0.004737301 -0.024441332 0.19870372 0.056669112
0.08716857 0.09886474 0.042157013 -0.030327307 0.1258476 0.05510573 0.043359812 0.030191917
0.0015812664 -0.025580004 -0.2028792 -0.06266428 -0.02288073 -0.046448488 0.015149519 0.07672305
-0.11850302 -0.0025849228 0.13473238 -0.15905441 -0.1430913 -0.027860703 -0.0898214 -0.1459748
-0.01615816 -0.13586006 -0.09612635 0.0018885485 -0.002983834 -0.04379212 0.009268222 0.056153324

layer1.1.bn2.weight f4 [16]
00000000: f871 423f 8d8b 233f fb32 043f 1db4 0b3f
00000010: 6732 283f 508a 493f 6c8c 8e3e 0ce7 0e3f
00000020: 702d 5d3f 6120 0b3f 8a23 503f 521a 2b3f
00000030: b18c 0b3f e14d 283f 0f7e e03e f96f ea3e
0.7595515 0.6388481 0.5164029 0.54571706 0.6570191 0.78726673 0.27841508 0.558213
0.8639746 0.5434628 0.8130423 0.66837037 0.54511553 0.65743834 0.43846175 0.45788553

layer1.1.bn2.bias f4 [16]
00000000: 31e9 d93d 3536 72bd 7571 74be 781c acbe
00000010: 49f0 b1be 64b1 41be 05bd 413e f451 f2bd
00000020: 1878 153c 28b1 2ebe 35c9 91be 5d65 3f3d
00000030: c06c 9dbd 5c1a 11bd fdd9 bc3c 6f43 eb3d
0.10640181 -0.059133727 -0.23871405 -0.3361547 -0.34753636 -0.18915325 0.18919761 -0.118320376
0.009122871 -0.17059767 -0.2847382 0.046727527 -0.07686758 -0.03542553 0.023053164 0.11487471

layer1.1.bn2.running_mean f4 [16]
00000000: e6c2 61bf 7aea c2be 55c9 f93e c365 03be
00000010: 910b 17bf 054d e0bf c4fd 96bf 7708 1dbf
00000020: c43d 84bf 507d 963f 940e 79be aee1 a0be
00000030: b6f8 80bf 1e21 853e d8ad 4ebf 108a d4be
-0.88188016 -0.38069516 0.48786417 -0.12831788 -0.59002024 -1.7523504 -1.1796193 -0.6134104
-1.0331349 1.1756992 -0.24321967 -0.3142218 -1.00759 0.2600183 -0.80734015 -0.41511583

layer1.1.bn2.running_var f4 [16]
00000000: bb1a 4f3f ab6c fd3e 7861 0b3f 1891 003f
00000010: 70ca 6b3f 36ad 773f 64df 543f 4d2c 1d3f
00000020: 21dd 433f a0f7 153f 3c97 943f 22c4 423f
00000030: e82b 353f 5c47 073f d336 fb3e 844c 613f
0.8090016 0.4949697 0.544456 0.50221395 0.9210577 0.96748674 0.8315337 0.6139572
0.7650929 0.5858097 1.1608653 0.76080525 0.7077012 0.5284326 0.49065265 0.8800738

layer2.0.conv1.weight f4 [32, 16, 3, 3]
00000000: 412d 56bd 7993 e7bc 2c32 6f3d e5cb b93c
00000010: 5e92 0b3e f52d 563d 7823 21bd 2ea8 1cbd
00000020: a4f0 f2bc 2c4b f9ba 56c6 8c3d 0417 563c
00000030: ff45 8b3d 583d 793d 895c b5bc 02c4 fabd
00000040: 8170 d2bd fdce 5cbd b5bd d33d 47f2 c03d
00000050: 60e3 623c 07e4 32bc 5ee8 4cbd 3da5 e5bd
00000060: b961 1cbd ea39 0fbd 9cf2 c1bc 0a9e 5ebd
00000070: 33dc 4bbd fe04 debc 803f c0bd d066 36bb
00000080: 393a 20bc 99dd b4bc b6e6 efbc 23c7 44bd
00000090: f922 f03c 78b6 74bd d7f1 f3bd abac f73b
000000a0: ac8c 8d3d 037e 45bd ed3d b7bc 7658 db3d
000000b0: e8e0 833d ccc0 8c3d bf09 29bd fe8f 743d
000000c0: 7eab bcbb 8c7d 8cbd 88f9 2e3d 9a39 053b
000000d0: de34 a2bc 05e2 b63d b385 82bd b746 ccbd
000000e0: b465 02bd 9077 1b3c 17d6 a93d a64b dd3c
000000f0: d639 213d d381 eb3d 3275 233d d11a c13c
00000100: 8f5b 6e3d 3bd5 bf3c 5044 023d f91b d03d
00000110: f2b5 af3d 0b41 5c3d d725 c3bc 4775 0dbc
00000120: 34af 85bc e0a5 d0bd 79fe 343c d246 b73d
00000130: 2023 3f3d 30f3 a6bb 6f2e 35bd ca6b 973c
00000140: 3d70 6dbd 1344 c43d aaee 843d 4c38 7f3d
00000150: 47f3 c3bd 096e 66bd 7bda b6bd f9fb 1bbe
00000160: 4b50 8ebc c4e7 63bd b79a 58bd 5ff6 35be
00000170: 092d 1fbe 9512 fd3c f2aa b6bd 3eee 46be
00000180: d4cb 913c 856b 8cbd 622b 90bd e5e4 4dbd
00000190: aec2 793d 49d9 2e3c c5c3 f9bb 4247 5e3d
000001a0: 7c63 ef3c e3e0 d5bd 6f4b bcbd 8147 ffbb
000001b0: 71d3 db3d a17f e13d 9f43 733e 77b5 8ebd
000001c0: 1447 77bd cc79 78bc 635c 23be 0799 56bd
000001d0: 949b 0cbe 700f c13c b4ac aebb 2734 cd3d
000001e0: 56ff c73b 696f f23c 3099 84bb 28e2 043d
000001f0: f663 6a3d a7e4 d4bc 59c1 ecbd c830 b9bc
00000200: ddd7 cdbc 36e1 a2bc 0904 453d 52e8 233d
00000210: a3a5 553d 2613 2a3d e37a 593d edb2 183d
00000220: d918 dd3c 0332 123e b24a 0d39 6fd0 6e3c
00000230: 7a3e 0bbd 2c13 9fbd 6ca8 bebc 80bf 4c3b
00000240: bc15 a83d 6d3c c1bc 9cd2 993c 7639 233d
00000250: fa54 b03d b55a 0d3c c60e 6b3d 9c64 1ebd
00000260: 509b 75bd 9296 92bc d199 16bd 188e 21bd
00000270: 212f bd3c 1798 b93d 7223 af3d 3027 853b
00000280: 3f7e a8bd f9b6 6abc a9ab 2cbc 9460 47bc
00000290: a119 2b3c 82ac 383a bc93 d3bc d29a ba3c
000002a0: 3062 8bbb b267 32bd 9c5e 9dba f194 60bd
000002b0: ad0f 3dbd 7900 26be fbd7 96bd 341e 43bd
000002c0: 03e2 a8bd e050 ffbd 585e 55bd 6a74 a6bd
000002d0: 02ad 3dbd 8986 18be e21f adbd 57bc cfbd
000002e0: 27fd f4bc 37fb e1bd d496 0dbe a2dd 1abd
000002f0: 5bcb 9ebd 8fd8 17bb 7dcf 913d eb23 a33d
00000300: 2d7f 023e c718 013e a41f 153e 98a3 e13d
00000310: ad26 253e 3bb3 ea3d 7daf 89bc 45b0 debc
00000320: 1831 8ebd 1031 bcbc aff2 c3bc 7f18 12bd
00000330: 7778 8bbd 64d4 dcbd 0805 57be 76e6 9d3d
00000340: d189 5539 ff32 8bbd 6e3e 803d e0eb a43c
00000350: cd91 a0bb a3ed c1bb aeb9 d5bc 8fa4 44bd
00000360: dc05 ba3c 31e4 1e3e 19cb 553e 1c3c 6abd
00000370: 28b0 d93d d542 443d c593 f5bb c77d ec3d
00000380: a5bc d13d b7e6 0d3d 7e5d b1ba 7dae eabd
00000390: bddd bdbd 9116 9bbc 211c 81bd 4497 a2bc
000003a0: a735 73bd 7eee b9bd 942c 24be 734a 12be
000003b0: d91f c9bb 1905 6ebd a874 9a3d c5e3 f63d
000003c0: d141 b5bd 5314 2b3e c351 323e 4e0b 283e
000003d0: f22b 33bc b624 193c 526b db3d cd89 93bd
000003e0: 4d44 7abd 4c07 073d d03f cfbd 8323 53bd
000003f0: 584f 2e3d 8f72 ffbc 2091 cdbd f8d4 89bd
-0.05228925 -0.028268563 0.058397457 0.022680232 0.13630053 0.05228992 -0.039340466 -0.038246326
-0.029655762 -0.0019019595 0.06873767 0.013067011 0.0680046 0.060849518 -0.02213885 -0.12244417
-0.10275365 -0.053908337 0.10338918 0.09421211 0.013848156 -0.010918624 -0.05002629 -0.11213157
-0.038179133 -0.03496734 -0.023675255 -0.054349937 -0.049770545 -0.02710199 -0.09387112 -0.0027832277
-0.009779506 -0.022078322 -0.029284816 -0.048041474 0.029313551 -0.05974433 -0.11911362 0.0075584254
0.06911597 -0.048215877 -0.022368396 0.10710232 0.06439382 0.068727106 -0.04126906 0.059707634
-0.005757748 -0.06859884 0.04271844 0.0020328523 -0.0198006 0.089298286 -0.06373157 -0.09974425
-0.031835273 0.009488955 0.082927875 0.027013611 0.039361797 0.114993714 0.039906688 0.023572357
0.058192786 0.023417106 0.03180343 0.10161585 0.08579625 0.053772967 -0.023821754 -0.008633918
-0.016318895 -0.10187888 0.011046999 0.08949055 0.046664357 -0.005094908 -0.044233736 0.018484015
-0.057968367 0.095832966 0.06490834 0.06230955 -0.09567886 -0.05625728 -0.089283906 -0.15232839
-0.017372271 -0.05564095 -0.052881923 -0.17769764 -0.15544523 0.03089265 -0.08919324 -0.1942682
0.017797388 -0.06856445 -0.070395246 -0.05026712 0.060976677 0.010671922 -0.0076222145 0.054267175
0.029222243 -0.10443284 -0.09194075 -0.0077905064 0.107336886 0.110106714 0.23756264 -0.069682054
-0.06037052 -0.015165757 -0.15953211 -0.052392032 -0.13731223 0.023566931 -0.0053306464 0.10019713
0.0061034365 0.02959414 -0.0040465817 0.032442242 0.057224236 -0.025987936 -0.11560316 -0.022606269
-0.025127346 -0.01988278 0.04809955 0.04001648 0.052159917 0.041522168 0.05309571 0.037280012
0.026989387 0.1427689 0.00013474634 0.014576062 -0.03399513 -0.077673286 -0.02327367 0.0031242073
0.082072705 -0.023588384 0.018777184 0.03984972 0.08609958 0.008627583 0.057387136 -0.038670167
-0.05996257 -0.017894063 -0.036767785 -0.03944215 0.023093762 0.09062212 0.085516825 0.0040635094
-0.082272045 -0.014325851 -0.010538974 -0.012169022 0.010443122 0.00070447486 -0.025827281 0.022778902
-0.004253648 -0.043555923 -0.0012006345 -0.05482954 -0.046157528 -0.16211118 -0.07365414 -0.047636226
-0.08246233 -0.124665976 -0.052091926 -0.08127673 -0.04630757 -0.14895071 -0.08453347 -0.10143345
-0.029905869 -0.110342436 -0.13827068 -0.03780902 -0.07753631 -0.002316985 0.071196534 0.07965835
0.12743826 0.12607108 0.14562851 0.11017531 0.16128035 0.11459967 -0.016807312 -0.027183661
-0.06942958 -0.022972614 -0.023919431 -0.035667893 -0.06810086 -0.10782698 -0.20998013 0.077099726
0.00020364604 -0.06796836 0.062619075 0.020132005 -0.0049001933 -0.005918221 -0.026089516 -0.048008498
0.022707872 0.15516736 0.20878257 -0.05718623 0.10629302 0.0479153 -0.007494422 0.115474276
0.10241059 0.034643855 -0.0013531891 -0.11459062 -0.09270809 -0.018931659 -0.06304193 -0.01984752
-0.05937734 -0.09078692 -0.1603263 -0.14286213 -0.0061378297 -0.05811033 0.07541782 0.12055162
-0.08850444 0.16706972 0.17414002 0.16410562 -0.01093577 0.0093471315 0.10713829 -0.07204018
-0.061100293 0.032965943 -0.10119593 -0.05154754 0.042556137 -0.031182555 -0.10037446 -0.06730074

layer2.0.bn1.weight f4 [32]
00000000: 4193 033f 3c8b 4f3f a446 053f 47dd 223f
00000010: 5b79 393f c107 223f 6525 1f3f f951 253f
00000020: f82a 2a3f 145c f83e b940 1d3f d5f9 153f
00000030: 2415 243f ece3 6c3f 317e 003f 210e 3b3f
00000040: b8ef 2d3f 47f4 263f 44d4 1d3f 5d9d 333f
00000050: d832 273f 22f5 313f 9aa0 393f 454c 093f
00000060: 2b81 2c3f a0c0 333f e335 1c3f 08ff 073f
00000070: f644 363f f59f 053f 035b 333f 4eca 553f
0.51396567 0.8107183 0.52060914 0.6361889 0.724508 0.6329308 0.62166435 0.64578205
0.66471815 0.4850775 0.61426884 0.5858434 0.6409476 0.9253528 0.5019255 0.73068434
0.67943907 0.6521649 0.61652017 0.7016199 0.65311956 0.6951467 0.72510684 0.53632003
0.67384595 0.702158 0.61019725 0.5312352 0.71198976 0.521972 0.7006075 0.8351182

layer2.0.bn1.bias f4 [32]
00000000: 98ca 0bbe d823 f9bd d647 da3d 566b a4bd
00000010: 0d0b 23be d14e ddbd 5af4 edbc 2b17 81bd
00000020: f67b 01be 8c12 15be 4192 30be d6a1 56be
00000030: 8f59 bbbd fbc7 7ebe e7f7 25be b434 59be
00000040: 65af 97be c95f d3bd a375 09be 06e7 84bd
00000050: a5c1 4ebd cbc3 0fbe dec3 4cbe d9e7 a1bc
00000060: 22ad 51be 18eb 16be a3c4 0abe b5a0 f0bd
00000070: 11e0 3ebd 2250 54be 2d17 edbd 4b28 4fbe
-0.13651502 -0.1216504 0.10658233 -0.08028285 -0.15922184 -0.10806049 -0.02904718 -0.06303247
-0.12644944 -0.14557856 -0.17243291 -0.20960173 -0.09147941 -0.24880974 -0.16207848 -0.21211511
-0.29626003 -0.10321004 -0.13423781 -0.06489377 -0.050477643 -0.14039533 -0.19996592 -0.019763874
-0.20476201 -0.14738119 -0.13551573 -0.117494024 -0.046600405 -0.20733693 -0.11576686 -0.20230214

layer2.0.bn1.running_mean f4 [32]
00000000: a6a8 13bf e705 d0bf 3789 53be f8c2 90bf
00000010: ec04 73bf c160 efbf b8e9 99bf 067c 973e
00000020: e7ef c1bf 177b 8a3f b66f 193f b607 b2bf
00000030: 0870 2e3e 77c6 14bf ff41 573e 0027 c9bf
00000040: 5cb3 0b3d 98b8 bbbf dc24 efbe 426e 19bf
00000050: ec9b a0be be3a c4bf f7c5 80c0 608a 50bf
00000060: ba2f 02bf 07e6 c0bf 48f0 88bf a95a 5abe
00000070: ba67 b53e 4a42 e1bd a256 26c0 a3fe 8c3e
-0.5767921 -1.6251801 -0.20657812 -1.13095 -0.94929385 -1.8701402 -1.202445 0.2958681
-1.5151337 1.0818814 0.5993608 -1.3908603 0.17034924 -0.58115333 0.2102127 -1.5715027
0.034106597 -1.4665709 -0.4670781 -0.59933865 -0.3136896 -1.5330427 -4.0241656 -0.81461143
-0.50854075 -1.5070199 -1.0698328 -0.21323647 0.354307 -0.10998972 -2.5990376 0.27538022

layer2.0.bn1.running_var f4 [32]
00000000: 5ba7 bb3f 4400 5540 1aaa 3e40 f3cb 3540
00000010: 069e 3840 21aa d73f 730d 2b40 5fc3 2840
00000020: 05b1 0140 09cd c43f 0908 3240 6602 1740
00000030: 5cb5 de3f ce93 b440 d2c6 d83f 9ed0 4540
00000040: 3ca8 9840 6adc 0f40 4891 3b40 254d 1c40
00000050: 7f91 5c40 8645 9b40 1443 2f40 9a76 0d40
00000060: 45b5 4b40 4359 4b40 0afd 0b40 3c05 0440
00000070: 1112 5040 6e5a f53f 1800 4840 6a58 f940
1.4660448 3.3281412 2.9791322 2.840573 2.884645 1.6848794 2.6726959 2.6369245
2.0264294 1.5375072 2.7817404 2.3595214 1.7399096 5.6430426 1.6935675 3.090858
4.7705364 2.247828 2.9307423 2.4422085 3.4463804 4.8522367 2.7384691 2.2103639
3.1829388 3.177323 2.1873193 2.0628195 3.2511027 1.9168222 3.1250057 7.7920427
