assignment1/notebooks/model_best.pth (torch, 720043 bytes, 51 tensors)

conv.weight f4 [16, 3, 3, 3]
0	0x3f4568e4	0.77113175
1	0x3f15b6b4	0.5848191
2	0x3d08aab1	0.03336591
3	0x3ed802db	0.4218968
4	0x3e470f36	0.19439396
5	0x3d1ddcd1	0.038540665
6	0x3db1e077	0.086853914
7	0x3e970aa1	0.29500297
8	0x3ed69836	0.41913003
9	0x3e3e7fa4	0.18603379
10	0x3e400fc4	0.18756014
11	0xbe94a99c	-0.29035652
12	0xbe297fcd	-0.16552658
13	0xbe431c92	-0.19053867
14	0xbe66b1b0	-0.2252872
15	0xbee83a63	-0.45357046
16	0xbdc4abc2	-0.09603073
17	0x3d824d61	0.06362415
18	0xbe48ca66	-0.19608459
19	0xbe1548ab	-0.14578502
20	0xbefadd26	-0.48996848
21	0xbecb34dc	-0.39688766
22	0xbe95b918	-0.29242778
23	0xbe488b76	-0.1958445
24	0xbf42a7cf	-0.76037306
25	0xbea0dbec	-0.31417787
26	0xbce498dd	-0.027904922
27	0xbd8776c7	-0.06614452
28	0x3ebbcc66	0.3667938
29	0xbee6c92b	-0.45075354
30	0x3eb324fc	0.34989154
31	0x3e0276ee	0.1274068
32	0xbe5cfa6e	-0.21579906
33	0xbead0619	-0.33793715
34	0xbed8f851	-0.4237695
35	0x3e6637fb	0.22482292
36	0x3e804837	0.25055096
37	0x3f266ff2	0.65014565
38	0xbe18af95	-0.14910729
39	0x3ee4f1f3	0.44715843
40	0x3ecdd73d	0.40203276
41	0xbd245178	-0.040116757
42	0xbe502278	-0.20325649
43	0xbe4fe01b	-0.20300333
44	0x3ec52385	0.38503662
45	0x3eab3f30	0.33446646
46	0x3f5ea8ac	0.8697612
47	0xbc9fdccd	-0.019514466
48	0x3ec542a1	0.38527396
49	0x3e99f0d9	0.30066565
50	0xbe3bffaf	-0.18359254
51	0xbea2f3f9	-0.3182676
52	0xbeae42cc	-0.34035337
53	0x3ed01a80	0.40645218
54	0x3e6ae7a1	0.22939922
55	0x3e1e6bf7	0.15470873
56	0x3e846521	0.25858405
57	0x3ed4833a	0.41506368
58	0x3da39c9e	0.07988857
59	0x3cd2112c	0.025642954
60	0x3e86d15d	0.26331607
61	0x3e14b247	0.14521132
62	0x3eb81ecd	0.35961
63	0xbd84b253	-0.06479325
64	0xbdeb0668	-0.11475831
65	0xbdd334ec	-0.103128284
66	0x3e2f1e6b	0.17101447
67	0xbea97b47	-0.33101866
68	0xbe8be8d3	-0.27326068
69	0x3cb44086	0.022003423
70	0x3d51bc81	0.051205162
71	0x3e3b1cfc	0.18272775
72	0x3e5bb664	0.21456295
73	0x3d01e016	0.031707846
74	0x3d20ffa1	0.039306287
75	0x3e0298dd	0.12753625
76	0xbe696660	-0.22792959
77	0xbde5a62a	-0.11213334
78	0x3c42b070	0.011882886
79	0x3c5a9bfe	0.0133428555
80	0x3d9e4a32	0.077289954
81	0x3d2a277a	0.041541554
82	0xbd3e17f5	-0.046409566
83	0x3f0808bf	0.53138345
84	0x3f0a796a	0.54091513
85	0xbf465262	-0.77469456
86	0x3ed8ab53	0.4231821
87	0x3e743e33	0.23851852
88	0xbf2fd723	-0.6868765
89	0x3da17024	0.07882717
90	0x3e29bad1	0.16575171
91	0xbdccd7fe	-0.10002135
92	0x3ef6e77d	0.48223487
93	0x3efe300c	0.49646032
94	0xbf65383c	-0.8953893
95	0x3dc9e7c4	0.09858659
96	0x3f009c69	0.5023866
97	0xbf25a89d	-0.6471041
98	0xbd5f8afd	-0.05457591
99	0xbf4aec74	-0.7926705
100	0xbf0e6f2c	-0.55638385
101	0x3ccd33a9	0.025049048
102	0x3d3ab1d0	0.04557973
103	0xbf6d6abf	-0.92741007
104	0x3e430fea	0.1904904
105	0x3f21b74a	0.631703
106	0xbe569153	-0.20953874
107	0x3f02d0a6	0.5109962
108	0xbcb75e73	-0.022383904
109	0xbeb8b59a	-0.3607605
110	0x3ee33951	0.44379666
111	0x3dd34097	0.10315054
112	0xbd73a73c	-0.05948566
113	0x3ee2d3ec	0.4430231
114	0x3eb997a4	0.36248505
115	0xbe8f3284	-0.27968228
116	0x38a6a1a5	7.9456055e-05
117	0xbed66680	-0.41875076
118	0xbed68747	-0.41900083
119	0x3ea819ff	0.32832333
120	0xbebcd3e0	-0.36880398
121	0xbe98724e	-0.29774708
122	0x3ec9352b	0.39298376
123	0xbe4d6e43	-0.20061593
124	0xbf034de4	-0.51290727
125	0xbe28c871	-0.16482712
126	0xbda78388	-0.081793845
127	0xbdff4d15	-0.12465874
128	0x3f2966ed	0.6617268
129	0xbde5f033	-0.11227455
130	0x3d41e4c9	0.047337327
131	0x3f23cb10	0.63981724
132	0x3d8ba87c	0.06819245
133	0xbd7143a3	-0.058902394
134	0x3e5a14f8	0.21297061
135	0xbea83a38	-0.32856917
136	0xbe74e42a	-0.23915163
137	0x3c3aa23e	0.011391221
138	0xbedba021	-0.42895606
139	0xbe407c8a	-0.18797508
140	0xbd8f1be1	-0.06987739
141	0xbc8f483e	-0.017490502
142	0x3f879f5c	1.0595508
143	0x3ee701b2	0.4511848
144	0x3d26973e	0.04067158
145	0xbe3e5509	-0.18587126
146	0xbe665e3d	-0.22496887
147	0xbe037878	-0.12838924
148	0xbe89abd9	-0.26888922
149	0xbf2231d2	-0.6335727
150	0x3e195050	0.14972043
151	0x3f109cdb	0.5648934
152	0xbe32b93f	-0.17453478
153	0xbbba5739	-0.0056866673
154	0xbdd5d9e2	-0.104419485
155	0x3c071ec6	0.008247083
156	0xbd16db65	-0.036830325
157	0xbe2d0cdb	-0.16899435
158	0xbe20c4f6	-0.15700135
159	0x3e40c0c6	0.18823537
160	0x3f35fe4e	0.71091163
161	0x3e0d21d8	0.13782442
162	0x3cd6fcba	0.026243556
163	0x3dd27ef0	0.10278118
164	0x3e763b43	0.24046044
165	0xbe63b24f	-0.22235988
166	0xbf44f009	-0.76928765
167	0xbeb905e2	-0.361373
168	0xbe6d0349	-0.23145784
169	0xbf3d5868	-0.7396302
170	0x3c85225d	0.016251737
171	0x3ec3f881	0.3827553
172	0x3e93a87c	0.2883948
173	0xbec1515e	-0.3775739
174	0x3ed7cf5e	0.42150396
175	0xbe813fd7	-0.25244018
176	0xbf1fe22e	-0.624545
177	0x3ebce85f	0.36896035
178	0xbe358b37	-0.17728887
179	0xbe08da2b	-0.13364474
180	0x3ec7cbc1	0.3902264
181	0x3edf5159	0.4361675
182	0xbd67c8d2	-0.056588
183	0x3f0e05ca	0.55477583
184	0x3ddeeeae	0.10885368
185	0xbd90f799	-0.070784755
186	0x3ef416f5	0.47673765
187	0xbd48e9f1	-0.04905123
188	0x3ea7405e	0.32666296
189	0x3f29c279	0.66312367
190	0x3edef483	0.43545923
191	0x3e026ef3	0.12737636
192	0x3ebb4714	0.36577666
193	0x3e8bf9e9	0.27339104
194	0xbd2fd4b0	-0.042927444
195	0xbf163ea5	-0.5868934
196	0xbf270f1a	-0.6525742
197	0xbece5129	-0.40296295
198	0x3ea79e2a	0.32737857
199	0x3e637b8f	0.22215103
200	0xbee87175	-0.4539906
201	0x3e6cccf7	0.23125063
202	0x3ea24827	0.31695673
203	0xbea61b15	-0.32442537
204	0xbd4e0609	-0.050298724
205	0xbcd61e88	-0.026137605
206	0xbe021246	-0.12702283
207	0xbf67c5d5	-0.9053624
208	0xbf498420	-0.7871723
209	0xbf2066d4	-0.62656903
210	0xbe1921c5	-0.14954288
211	0x3e3ea5c0	0.18617916
212	0x3e157012	0.14593533
213	0x3d9ff392	0.07810129
214	0x3eed10ae	0.46301788
215	0x3f7bbcff	0.9833526
216	0xbec1d7e9	-0.3786004
217	0xbd6b59d2	-0.057458706
218	0x3e44f511	0.1923411
219	0xbf5db2d5	-0.86601
220	0xbf3db336	-0.7410158
221	0x3e044908	0.12918484
222	0x3d84106d	0.064484455
223	0x3dd84e54	0.10561815
224	0x3e01b803	0.12667851
225	0x3f2da00c	0.6782234
226	0x3f425fb1	0.75927263
227	0x3f707fa1	0.93944746
228	0xbdba286a	-0.090897396
229	0xbe559637	-0.20858084
230	0x3f0be317	0.54643387
231	0x3f1c7c13	0.6112682
232	0x3e8605df	0.26176354
233	0x3ef41add	0.47676745
234	0xbd89e57b	-0.06733223
235	0xbda12f54	-0.07870355
236	0x3ddf5fc7	0.1090694
237	0xbf438caa	-0.7638651
238	0xbf80cf23	-1.0063213
239	0xbe89984c	-0.26874006
240	0xbda10df3	-0.07863989
241	0xbf006147	-0.50148433
242	0xbe825d7f	-0.25461957
243	0xbf17b1da	-0.59255755
244	0xbf2eabd9	-0.6823097
245	0xbec39834	-0.3820206
246	0xbf21e008	-0.6323247
247	0xbf19f00c	-0.6013191
248	0xbeefb13b	-0.46814904
249	0x3d941d0f	0.07232105
250	0x3e81c5ec	0.25346315
251	0xbe5b93b1	-0.21443059
252	0xbe13a33c	-0.14417738
253	0xbe14bcf1	-0.145252
254	0x3ce3e0cb	0.02781715
255	0xbe3b64ac	-0.18300122

bn.weight f4 [16]
0	0x3f5fb180	0.8738022
1	0x3f83a542	1.0284808
2	0x3f6b0da7	0.91817707
3	0x3f88fda5	1.0702406
4	0x3f552971	0.8326636
5	0x3f5a17e3	0.851927
6	0x3f4ea8b2	0.8072616
7	0x3f3c9b0f	0.736741
8	0x3f84299d	1.0325199
9	0x3f2d8e38	0.67795134
10	0x3f94d6f8	1.1628103
11	0x3f4a0e60	0.78928185
12	0x3f341765	0.703482
13	0x3f4d203c	0.8012731
14	0x3f9efd5c	1.2421069
15	0x3f5e54aa	0.8684794

bn.bias f4 [16]
0	0xbe89f430	-0.26944113
1	0xbda8b031	-0.08236731
2	0xbea81ae9	-0.3283303
3	0x3f098007	0.5371098
4	0x3eca397b	0.3949698
5	0x3eef1df3	0.46702537
6	0x3f095792	0.53649247
7	0xbd8b1e35	-0.06792871
8	0x3ee82ba8	0.45345807
9	0x3ebbc434	0.3667313
10	0x3d8a4bf8	0.06752771
11	0x3e9cc5dc	0.30619705
12	0x3e1be5a5	0.15224321
13	0x3aad239e	0.0013209467
14	0x3ed71eca	0.42015678
15	0xbdfd36d4	-0.12363973

layer1.0.conv1.weight f4 [16, 16, 3, 3]
0	0xbdfb43ea	-0.12268813
1	0xbd4ae4e3	-0.04953469
2	0xbd0fac63	-0.03507651
3	0xbca62e37	-0.020285709
4	0xbd94c212	-0.072635785
5	0xbd8dd517	-0.06925409
6	0x3c50b589	0.012738594
7	0xbd6ac2b0	-0.057314575
8	0xbdc5cd60	-0.09658313
9	0x3ce23c2d	0.027616585
10	0x3c88e8bf	0.016712544
11	0x3ced7adb	0.028989246
12	0x3e4704f8	0.19435489
13	0x3d810729	0.06300194
14	0x3ca2a331	0.019853206
15	0x3e8537a4	0.26019013
16	0x3e018dc1	0.12651731
17	0x3cacf39d	0.021112258
18	0x3d4917af	0.049094852
19	0xbce16fbe	-0.027519103
20	0xbd371c76	-0.044704877
21	0x3dc72786	0.09724335
22	0x3c6f53c7	0.014607376
23	0xbc41d6fc	-0.011831041
24	0x3da8dfdc	0.08245823
25	0x3c8f8734	0.017520525
26	0xbc6cbdc8	-0.014449544
27	0x3de6cf26	0.11269979
28	0x3dcee1fd	0.101016976
29	0x3a1e4daf	0.00060387974
30	0xbd65a7ba	-0.05606816
31	0x3e394cf1	0.18095757
32	0x3e30d78f	0.17269729
33	0xbe7707c6	-0.24124059
34	0xbd2f4198	-0.042787164
35	0x3e28c30e	0.16480657
36	0xbd1956bb	-0.03743623
37	0x3e196f05	0.14983757
38	0x3b2732c9	0.0025512448
39	0xbe0fe3e2	-0.14051774
40	0x3e116760	0.1419959
41	0x3df5bd84	0.11999038
42	0xbe676de8	-0.2260052
43	0x3bed00f5	0.00723278
44	0x3c16fe3e	0.0092158895
45	0xbe8ff37f	-0.2811546
46	0xbe789c1c	-0.24278301
47	0xbde16950	-0.11006415
48	0x3d8e8907	0.0695973
49	0x3dbf3bad	0.09337554
50	0x3de7b323	0.113134645
51	0x3b2e9c17	0.002664333
52	0x3dea111f	0.11429047
53	0x3e11a18c	0.14221781
54	0x3db5e458	0.08881444
55	0x3d7f21a2	0.062287934
56	0x3e0197fa	0.1265563
57	0x3e2bcb82	0.16776851
58	0x3e301146	0.1719409
59	0x3e13740a	0.14399734
60	0xbd4b9aa0	-0.04970801
61	0xbd98551e	-0.0743811
62	0x3cc78e16	0.024359744
63	0xbdad4ef3	-0.08462324
64	0xbd088d2e	-0.033337764
65	0x3e4730e4	0.19452244
66	0x3db4c34f	0.08826315
67	0x3c033d7f	0.008010267
68	0x3e12496d	0.14285822
69	0x3c50a6cc	0.01273508
70	0xbdf63aca	-0.12022932
71	0xbda7a8fe	-0.081865296
72	0x3d5cfc7e	0.053951733
73	0x3d4a2b2b	0.049357574
74	0x3c038118	0.008026384
75	0x3d37f878	0.044914693
76	0x3ea0d72a	0.31414157
77	0x3edbd730	0.42937613
78	0xbd7e17cc	-0.062034413
79	0x3d93e030	0.07220495
80	0x3e80db99	0.2516754
81	0xbe0413fb	-0.12898247
82	0x3cb360e5	0.021896789
83	0xbdb1288a	-0.0865031
84	0xbd98355b	-0.07432052
85	0x3d88f727	0.066877656
86	0x3c217774	0.00985514
87	0xbe839a89	-0.25703838
88	0xbb9d72f3	-0.004804963
89	0x3d131ca0	0.03591597
90	0x3db10af7	0.086446695
91	0xbd58a0fa	-0.052887894
92	0x3cc0ca78	0.023534045
93	0x3e7968be	0.24356362
94	0x3e0301a8	0.127936
95	0x3d9ef23c	0.07761046
96	0x3d9015db	0.070354186
97	0x3ded2dc8	0.11580998
98	0x3e80b554	0.25138342
99	0xbdeaeef7	-0.1147136
100	0x3dd110bf	0.10208272
101	0x3c84d214	0.016213454
102	0xbc05cb65	-0.008166169
103	0x3de7a1bd	0.11310146
104	0x3c650502	0.013978245
105	0x3c8e739f	0.017389117
106	0xbbe8384c	-0.0070867892
107	0xbdb0b1fe	-0.08627699
108	0xbe445312	-0.19172314
109	0xbe24e6b7	-0.16103636
110	0xbe898935	-0.26862493
111	0x3db4d1da	0.088290885
112	0x3e8428cf	0.25812384
113	0x3dbd76b0	0.092511535
114	0xbd649603	-0.055807125
115	0x3e446311	0.19178416
116	0x3e1825f0	0.14858222
117	0x3d91893a	0.07106252
118	0x3e67e445	0.22645672
119	0x3e8c36d6	0.27385587
120	0x3cd98f8e	0.02655771
121	0x3e3c0f60	0.1836524
122	0x3e856b56	0.26058453
123	0xbe1bc4e1	-0.15211822
124	0xbd4c9e35	-0.049955565
125	0x3d78f680	0.060781956
126	0xbe0b94b6	-0.13630947
127	0x3e05e62a	0.13076082
128	0xbd32120f	-0.043474253
129	0xbe25228a	-0.16126457
130	0x3e0d05bf	0.13771723
131	0x3dacbefe	0.08434866
132	0xbe968675	-0.29399458
133	0xbd6696f7	-0.056296315
134	0xbde45a6c	-0.11150059
135	0xbc5162a6	-0.012779867
136	0x3df962fb	0.12177082
137	0x3e1d9c72	0.1539171
138	0x3e49d608	0.19710553
139	0x3ed534f3	0.4164196
140	0x3eb9338c	0.3617214
141	0x3de48221	0.111576326
142	0x3eb3573f	0.350275
143	0x3e8696ec	0.2628702
144	0xbcb3fda8	-0.021971539
145	0x3d7c3f12	0.061583586
146	0x3cd36ce0	0.025808752
147	0xbdc4b118	-0.096040905
148	0xbda2b194	-0.079440266
149	0xbe1fe1b8	-0.15613449
150	0x3cfce784	0.030872114
151	0xbd860bb0	-0.06545198
152	0x3c8ac363	0.01693887
153	0xbdd9d0af	-0.10635506
154	0x3e1ce094	0.15320045
155	0xbe03bc07	-0.12864695
156	0x3d998136	0.07495348
157	0x3ce3ab2a	0.027791578
158	0xbe12db63	-0.14341502
159	0x3dbb4876	0.0914468
160	0xbe84242a	-0.2580884
161	0x3d1d182c	0.03835313
162	0xbd84b3dd	-0.06479619
163	0x3e1899dd	0.14902444
164	0x3d2a4ee7	0.041579153
165	0xbd9a3811	-0.07530225
166	0x3e2e9201	0.17047884
167	0xbdaf11c4	-0.085483104
168	0xbe0eefdc	-0.13958687
169	0xbd062000	-0.03274536
170	0xbe765648	-0.24056351
171	0xbeaa9c06	-0.3332216
172	0x3e891585	0.2677423
173	0xbeb8c1be	-0.36085314
174	0xbe7ab637	-0.24483572
175	0x3f15598f	0.5833978
176	0xbf26844d	-0.65045625
177	0xbe4e68a3	-0.20157103
178	0x3e4073fe	0.18794248
179	0xbf2eb17e	-0.6823958
180	0xbd08fc36	-0.033443652
181	0x3eb17401	0.34658816
182	0xbe4c98fc	-0.19980234
183	0xbe8ed67a	-0.27898008
184	0x3eeeacde	0.46616262
185	0xbe57e071	-0.21081711
186	0xbef4469c	-0.4771012
187	0x3ef61c43	0.48068437
188	0xbeac2612	-0.33622795
189	0x3e10486f	0.14090131
190	0xbe99c7a9	-0.3003514
191	0x3e2b32da	0.16718617
192	0x3ca791cc	0.020455264
193	0xbe534126	-0.20630321
194	0x3ebed58f	0.37272307
195	0xbe0b9311	-0.1363032
196	0xbe6a30ff	-0.22870253
197	0x3e1de928	0.15420973
198	0xbe970bfe	-0.29501337
199	0x3d783ec0	0.060606718
200	0xbe953a3d	-0.29145995
201	0x3de4fb46	0.11180739
202	0x3dfd8661	0.12379146
203	0xbea48991	-0.32136205
204	0xbd887b12	-0.06664099
205	0xbe4bf877	-0.19919
206	0xbe68cdd7	-0.22734772
207	0xbe52d342	-0.20588401
208	0x3e3fe98c	0.18741435
209	0xbd99649d	-0.074898936
210	0x3eb9797c	0.36225498
211	0x3efb66fe	0.49102014
212	0x3dc4e211	0.09613431
213	0x3debd3de	0.1151502
214	0x3d718552	0.058965035
215	0xbe3b38df	-0.18283413
216	0x3ceb53c7	0.028726472
217	0xbd3112a8	-0.043230683
218	0xbe0a006c	-0.13476723
219	0xbe232754	-0.15932971
220	0x3ec1cd40	0.37851906
221	0xbd24d998	-0.040246576
222	0xbea7cdb6	-0.32774132
223	0x3e3d433f	0.18482684
224	0xbdaae518	-0.083444774
225	0x3e2d6a71	0.16935135
226	0xbdb03bc1	-0.08605147
227	0x3dc3bbcf	0.09557306
228	0x3d2abe8c	0.041685626
229	0xbd4e9656	-0.05043634
230	0x3dfefca8	0.12450534
231	0xbdc214ba	-0.094766095
232	0xbd115ea7	-0.035490658
233	0x3d6cd602	0.05782128
234	0xbc283c8b	-0.010268341
235	0x3e978413	0.29592952
236	0xbeab693c	-0.33478725
237	0x3c41bd40	0.011824906
238	0xbc8359a6	-0.016033959
239	0xbeb2e5ea	-0.34941036
240	0x3e335ef6	0.17516693
241	0x3bebe125	0.00719847
242	0xbe2bb0aa	-0.1676661
243	0xbe1c1458	-0.15242136
244	0xbe109186	-0.14118013
245	0xbdfaaeb4	-0.12240353
246	0x3d138869	0.036018763
247	0x3e0380c5	0.1284209
248	0x3da9b4d7	0.082864456
249	0xbd9fa6a8	-0.07795459
250	0xbc921822	-0.017833773
251	0x3c50bd6a	0.012740472
252	0xbdcc74c9	-0.099832125
253	0xbe06bbae	-0.13157532
254	0xbd95c98d	-0.073138334
255	0xbd509d46	-0.050931238

layer1.0.bn1.weight f4 [16]
0	0x3f5238b7	0.8211779
1	0x3f7af53a	0.98030436
2	0x3f246fdf	0.642332
3	0x3f0bbe0c	0.54586864
4	0x3f6ed67b	0.9329602
5	0x3f2afc18	0.66790915
6	0x3f38b788	0.72155046
7	0x3f322332	0.69584954
8	0x3f2ae7a3	0.667597
9	0x3f3147fa	0.6925045
10	0x3f274c05	0.6535037
11	0x3f389904	0.72108483
12	0x3f3262fb	0.6968228
13	0x3f180d0e	0.5939492
14	0x3f1fabb1	0.62371355
15	0x3f4a0f4b	0.78929585

layer1.0.bn1.bias f4 [16]
0	0xbeeb7343	-0.45986375
1	0xbdda4fbb	-0.10659739
2	0xbea54a5a	-0.32283288
3	0xbe844842	-0.25836378
4	0xbea047db	-0.3130482
5	0xbe141bf9	-0.14463796
6	0x3cc02e2c	0.023459516
7	0xbebe3228	-0.3714764
8	0xbe45d99f	-0.19321297
9	0x3eb43100	0.35193634
10	0xbe1a3315	-0.15058549
11	0x3e935c3d	0.2878131
12	0xbdbea990	-0.09309685
13	0x3eab2398	0.33425593
14	0x3df74daf	0.12075364
15	0xbee5fdd4	-0.44920218

layer1.0.conv2.weight f4 [16, 16, 3, 3]
0	0x3e14705a	0.14495984
1	0xbe0bd4fb	-0.13655464
2	0xbdaabfaa	-0.08337338
3	0x3e2cc194	0.16870719
4	0x3c2c05bb	0.010499413
5	0xbcd68872	-0.02618811
6	0x3e1cac93	0.15300207
7	0x3dae3aa9	0.08507282
8	0x3e1cc4c9	0.15309443
9	0xbe389fd8	-0.18029726
10	0xbe90c281	-0.28273395
11	0x3d11cec6	0.035597585
12	0x3cfe631f	0.031053124
13	0x3de8e46f	0.11371695
14	0x3c60db43	0.013724151
15	0x3ee0bf09	0.43895748
16	0x3dcb7ca4	0.09935883
17	0x3dc5f5dc	0.096660346
18	0xbdc2bc61	-0.09508587
19	0xbb353659	-0.0027650802
20	0xbd621318	-0.05519399
21	0xbe26dfbe	-0.16296288
22	0xbde8904b	-0.11355647
23	0xbe263665	-0.16231687
24	0xbe14a143	-0.14514641
25	0xbdbbc33e	-0.09168099
26	0xbe10cda9	-0.14140953
27	0xbd27b34d	-0.04094248
28	0xbdd1ad18	-0.10238093
29	0xbdd4ab33	-0.10384216
30	0xbdb0e8e2	-0.08638169
31	0xbd4d277e	-0.05008649
32	0xbd64262e	-0.055700473
33	0x3d3890c9	0.045059953
34	0x3ccf33d2	0.025293265
35	0x3d9e541d	0.07730887
36	0x3dd93902	0.106065765
37	0xbde70a43	-0.11281254
38	0xbdeb688c	-0.1149455
39	0xbda08fba	-0.07839914
40	0xbb4d9934	-0.0031371834
41	0x3d2370f1	0.03990263
42	0xbd9f4e13	-0.07778563
43	0x3e463a4c	0.19358176
44	0x3dc8cd96	0.098048374
45	0x3cede582	0.029040102
46	0x3cb404d0	0.021974951
47	0x3d610e93	0.05494554
48	0x3c981e89	0.018569248
49	0xbd1653ce	-0.036701016
50	0xbdbf8da7	-0.0935319
51	0x3df03067	0.11727982
52	0xbd6c85ab	-0.057744663
53	0xbded2ba3	-0.11580589
54	0x3dfebf24	0.12438801
55	0x3d8b4664	0.06800535
56	0x3de809da	0.11330004
57	0xbe24a28c	-0.16077632
58	0xbdf65223	-0.12027385
59	0xbc63e0df	-0.013908594
60	0xbcbc5752	-0.022990856
61	0x3d397a46	0.045282625
62	0x3e3634d7	0.17793594
63	0xbdc3e0fe	-0.09564398
64	0xbd692829	-0.056923065
65	0xbd708f03	-0.058730137
66	0xbdfe19b7	-0.124072485
67	0xbe0cd5c1	-0.13753416
68	0xbe00b6a9	-0.1256968
69	0xbe024135	-0.12720187
70	0xbd8de7be	-0.06928967
71	0xbe012ffa	-0.12615958
72	0x3e181f7b	0.14855759
73	0x3dfb8bdf	0.12282538
74	0x3e30c938	0.17264259
75	0x3c39ed68	0.011348106
76	0xbc4f6711	-0.01265885
77	0x3df03169	0.11728174
78	0x3dbe11cf	0.092807405
79	0x3e0a76bc	0.13521856
80	0x3ea75cff	0.32688138
81	0x3dea39a3	0.114367746
82	0x3dde6f77	0.10861104
83	0x3e3e35b5	0.18575175
84	0x3d96f679	0.0737123
85	0xbdb531a2	-0.08847357
86	0x3d968c67	0.07350998
87	0x3dca550f	0.09879505
88	0xbe3d2820	-0.18472338
89	0x3da9a515	0.0828344
90	0xbc2dabf8	-0.010600083
91	0xbd9c7cf0	-0.076410174
92	0x3cbbf512	0.022944007
93	0xbc3fff19	-0.011718535
94	0xbc76bcd0	-0.015059665
95	0x3c97d0b4	0.018532135
96	0x3dc3b90d	0.0955678
97	0x3dfbe7f1	0.12300099
98	0x3d934383	0.07190611
99	0xbe11012b	-0.14160602
100	0xbd1bf136	-0.038071834
101	0xbe8ed66d	-0.2789797
102	0xbc1db7dc	-0.009626355
103	0x3ead133a	0.3380373
104	0x3e1705c9	0.147483
105	0x3e57716e	0.21039364
106	0x3e24a85d	0.1607985
107	0x3d248e9d	0.04017507
108	0x3d2bdb3f	0.041957136
109	0xbe121f4b	-0.1426975
110	0xbda9f795	-0.08299176
111	0x3dcabe79	0.09899611
112	0x3d9fe712	0.07807745
113	0x3d735a37	0.059412207
114	0xbd835eee	-0.06414591
115	0x3da0cbb5	0.07851354
116	0x3ce00127	0.0273443
117	0x3cdfb7c5	0.027309308
118	0x3e401a87	0.1876012
119	0xbd9621fb	-0.073307
120	0xbdf97502	-0.121805206
121	0x3e145f58	0.14489496
122	0x3c113b50	0.008864239
123	0xbe8415fb	-0.2579802
124	0x3d4a0ade	0.04932677
125	0xbdde27cd	-0.10847435
126	0x3d69ffa4	0.057128564
127	0x3d2f79f8	0.042840928
128	0xbdd6ec76	-0.1049432
129	0x3df8c923	0.12147739
130	0xbd5bd9e3	-0.05367459
131	0xbe88dccf	-0.26730964
132	0x3e6bade7	0.23015557
133	0xbd236197	-0.03988799
134	0xbde5d641	-0.11222506
135	0x3d386e54	0.045027092
136	0x3e33752c	0.17525166
137	0x3da898ed	0.08232293
138	0xbe2a94ce	-0.16658327
139	0x3d6b3479	0.05742309
140	0xbcf7474f	-0.03018537
141	0xbe5754f5	-0.21028502
142	0xbd94928a	-0.072545126
143	0xbe256a0a	-0.16153732
144	0xbcbd0629	-0.023074226
145	0xbdc46a0e	-0.09590541
146	0xbdc2964f	-0.09501325
147	0xbe045129	-0.12921585
148	0xbd746271	-0.059664194
149	0xbdd6d6e4	-0.10490206
150	0x3db8644f	0.09003507
151	0xbd34c4c2	-0.044132955
152	0xbe24a8d5	-0.1608003
153	0x3dababe9	0.08382399
154	0xbe0a3172	-0.13495424
155	0x3d26f05a	0.04075656
156	0xbca669bb	-0.020314088
157	0xbb00e97a	-0.0019670413
158	0x3d241fc8	0.04006937
159	0x3e1eaba8	0.15495169
160	0x3e611962	0.21982339
161	0x3be13abc	0.0068734568
162	0xbda2b361	-0.0794437
163	0x3d3aee38	0.04563734
164	0xbcef41bc	-0.02920615
165	0x3d5e6c67	0.0543026
166	0x3e250299	0.16114272
167	0x3d874f82	0.06606962
168	0x3d8a8ec5	0.067655124
169	0xbc9d7646	-0.019221436
170	0xbe1fcf40	-0.15606403
171	0x3cd21ce8	0.02564855
172	0x3d9bdb28	0.0761016
173	0xbd135d85	-0.03597786
174	0x3dd550e0	0.10415816
175	0x3db0a3ae	0.086249694
176	0xbd98b13b	-0.07455679
177	0x3e07962c	0.1324088
178	0x3dc28cb8	0.09499496
179	0x3ce22a72	0.02760813
180	0x3e1d98b6	0.15390286
181	0x3e3b3d5e	0.18285128
182	0x3e16b465	0.14717253
183	0xbc7e550e	-0.015523208
184	0x3da0463b	0.078258954
185	0x3e4acae3	0.19803958
186	0xbe2f0b63	-0.17094187
187	0xbcbca21c	-0.023026519
188	0x3d171662	0.03688658
189	0xbd083915	-0.033257563
190	0x3d66e870	0.056374013
191	0x3e2e2ede	0.17010066
192	0x3e0112a0	0.12604761
193	0x3e72a8af	0.2369716
194	0x3e935365	0.28774562
195	0x3dedcb42	0.11611034
196	0xbdce5bed	-0.10076127
197	0xbc67887b	-0.014131661
198	0x3e3fe68a	0.18740287
199	0x3d771a0c	0.060327575
200	0xbd1f3b94	-0.038875178
201	0x3dd2e580	0.1029768
202	0xbd582023	-0.052765023
203	0xbd75f3ba	-0.06004689
204	0xbde9485b	-0.11390754
205	0xbdb9432f	-0.090460174
206	0xbcd75e8d	-0.026290203
207	0xbc23578a	-0.009969601
208	0x3d103b5a	0.035212852
209	0xbbb1e588	-0.0054289736
210	0x3d5a4cb7	0.053295817
211	0x3d2c2da3	0.04203571
212	0xbd2875b6	-0.041127883
213	0x3e4ba66c	0.19887704
214	0x3e1241ea	0.14282957
215	0x3d2a8902	0.041634567
216	0x3e46ed68	0.19426501
217	0x3da3d7ef	0.080001704
218	0x3cf3d41b	0.029764226
219	0x3e67bd6b	0.22630851
220	0x3cb215d0	0.021738917
221	0x3d87adad	0.06624923
222	0x3c0d8ad6	0.008639058
223	0xbd503ba9	-0.050838146
224	0x3c6628ef	0.014047845
225	0xbd19f83d	-0.037590254
226	0x3dd51946	0.10405211
227	0x3e87f2cd	0.2655243
228	0x3d90fc44	0.07079366
229	0x3d8d9507	0.0691319
230	0x3e1db7eb	0.1540219
231	0x3dcc0240	0.09961367
232	0xbdf38f87	-0.1189261
233	0xbd27f98e	-0.04100948
234	0x3b6cee42	0.0036152755
235	0xbe0ab793	-0.1354659
236	0xbd90d27d	-0.070713975
237	0x3bd66a75	0.0065434524
238	0xbe8966e8	-0.26836324
239	0xbe02e4be	-0.1278257
240	0xbd1853a9	-0.03718916
241	0xbe47f811	-0.19528224
242	0xbe206346	-0.1566287
243	0xba2e533c	-0.0006649976
244	0x3da6e58e	0.08149253
245	0x3e0f72ee	0.14008686
246	0xbe564d17	-0.20927845
247	0xbdf6f8a1	-0.12059141
248	0xbe0dc111	-0.1384318
249	0x3d1f4a3d	0.03888916
250	0x3d802b93	0.06258311
251	0xbddf073b	-0.10890051
252	0x3dc54085	0.09631447
253	0x3cbcb870	0.023037165
254	0xbc8afe8d	-0.016967082
255	0xbaa0fc7b	-0.0012282276

layer1.0.bn2.weight f4 [16]
0	0x3ef3e3c0	0.47634697
1	0x3ec6e62a	0.38847476
2	0x3f7591a3	0.9592535
3	0x3f2d1543	0.6761057
4	0x3f52531b	0.8215806
5	0x3f35e036	0.71045244
6	0x3f5c47c6	0.8604702
7	0x3f6b916d	0.9201878
8	0x3f19bfc8	0.6005826
9	0x3f28f2a6	0.6599525
10	0x3f0dddc8	0.55416536
11	0x3f32c108	0.6982579
12	0x3f308dc2	0.68966305
13	0x3f2f0a01	0.6837464
14	0x3f527fd6	0.8222631
15	0x3f3f7490	0.74787235

layer1.0.bn2.bias f4 [16]
0	0x3deeba3f	0.116566174
1	0xbd2f19b7	-0.042749133
2	0xbd641788	-0.055686504
3	0xbe466b23	-0.19376807
4	0xbe127a7f	-0.14304541
5	0x3de0a87b	0.10969635
6	0x3ba6fe26	0.005096215
7	0xbf193cd8	-0.59858465
8	0xbd1e9795	-0.03871878
9	0xbc2740fa	-0.010208363
10	0xba974f2c	-0.0011543981
11	0xbd5907fc	-0.05298613
12	0x3c8cf9bd	0.017208928
13	0xbe5600b9	-0.20898713
14	0xbe3d8d8e	-0.1851103
15	0x3e60752a	0.21919695

layer1.1.conv1.weight f4 [16, 16, 3, 3]
0	0xbd7d71f7	-0.061876263
1	0xbe009ad2	-0.1255906
2	0xbd30caca	-0.043162145
3	0x3dc0d882	0.094162956
4	0xbca502ce	-0.020142939
5	0x3d23c677	0.039984193
6	0x3e03a63d	0.12856384
7	0xbdc5031c	-0.09619734
8	0xbd9ce2b2	-0.07660426
9	0x3df8f5b0	0.12156236
10	0x3dbd9306	0.09256558
11	0x3dc5748b	0.096413694
12	0x3e128def	0.14311956
13	0xbcbb1c2d	-0.022840584
14	0xbd679a3a	-0.056543566
15	0xbdc4a3c9	-0.09601552
16	0xbe07e493	-0.13270788
17	0xbddc9c00	-0.10771942
18	0xbd0bba91	-0.03411347
19	0xbdc9d291	-0.098546155
20	0xbe01d386	-0.12678346
21	0xbd2270cf	-0.039658364
22	0xbe1832bf	-0.14863108
23	0xbc60325f	-0.013683884
24	0x3dd29f13	0.10284247
25	0xbcd1f3c7	-0.025628937
26	0x3da2cccd	0.07949219
27	0x3debf8d5	0.1152207
28	0x3e394895	0.18094094
29	0xbd6d4456	-0.0579265
30	0x3d253ea5	0.040342946
31	0xbbbb8c06	-0.005723479
32	0x3ca7cb4f	0.020482687
33	0xbdc0682f	-0.093948714
34	0xbde7eaab	-0.11324056
35	0xbe049d90	-0.1295073
36	0x3e0587f3	0.13040142
37	0x3e13b6dc	0.14425224
38	0xbc10767c	-0.008817311
39	0xbbc30331	-0.005951308
40	0xbd019aa4	-0.031641617
41	0xbd14883a	-0.03626273
42	0xbdab8109	-0.08374221
43	0xbd94690d	-0.07246599
44	0xbe330589	-0.1748258
45	0xbd615db4	-0.055021003
46	0xbd928c55	-0.071556725
47	0xbcd5890d	-0.026066327
48	0x3dc9c0e0	0.09851241
49	0x3e1e54ae	0.1546199
50	0x3e4579c4	0.19284731
51	0x3c47d9ff	0.01219797
52	0x3dd6ffa5	0.10497979
53	0x3db10585	0.08643631
54	0x3d4db513	0.050221514
55	0x3d32a558	0.043614715
56	0x3ce2c33c	0.027680986
57	0x3e2d1794	0.16903526
58	0x3ddaed4e	0.106897935
59	0x3deb22cc	0.11481246
60	0x3c4410b0	0.011966869
61	0xbe5d7181	-0.2162533
62	0xbd074229	-0.03302208
63	0xbd76f839	-0.060295317
64	0xbdedfc6d	-0.11620412
65	0xbd80f52f	-0.06296765
66	0x3cf6be11	0.030119928
67	0xbd15cd91	-0.036572997
68	0x3d85d8a7	0.06535464
69	0xbcb7e558	-0.022448227
70	0xbcc8cbf2	-0.024511311
71	0x3d4124dc	0.047154292
72	0xbd884b69	-0.06655008
73	0xbcd71715	-0.026256124
74	0x3d068d7b	0.03284977
75	0xbc3ffbf6	-0.011717787
76	0x3dee8dc5	0.11648134
77	0x3e3df424	0.18550164
78	0x3d8bf18d	0.068331815
79	0x3e06ef3e	0.13177201
80	0x3e3aa33b	0.1822633
81	0x3c938cf0	0.01801154
82	0xbcfbefdb	-0.03075402
83	0xbd241f0a	-0.040068664
84	0xbd92ba10	-0.07164395
85	0xbde6d242	-0.11270572
86	0xbd21d6f1	-0.039511625
87	0x3b4cba02	0.00312388
88	0xbd21bc38	-0.03948614
89	0x3da18178	0.07886022
90	0x3d6314e9	0.055439863
91	0xbd7b2680	-0.061316013
92	0x3dd44470	0.10364616
93	0x3e0905ac	0.1338107
94	0x3be8a620	0.007099882
95	0x3db2c991	0.08729852
96	0x3e363396	0.17793116
97	0xbc590280	-0.013245225
98	0x3e16e091	0.14734103
99	0x3e568d20	0.20952272
100	0x3d16d679	0.03682563
101	0xbddc8234	-0.10767022
102	0x3e418a4c	0.18900412
103	0x3c0eb197	0.008709333
104	0xbe266353	-0.16248827
105	0x3a16a318	0.0005746349
106	0xbe10d6cf	-0.14144443
107	0xbe77caa5	-0.24198397
108	0xbb7fdf93	-0.0039043173
109	0xbd9aa973	-0.07551851
110	0xbda2fdde	-0.079585776
111	0x3d5c0a63	0.053720843
112	0x3d9cef3e	0.07662819
113	0x3da04e72	0.07827462
114	0x3de4c9a8	0.111712754
115	0x3ded09fa	0.115741685
116	0x3e0164f8	0.12636173
117	0x3d533148	0.05156067
118	0x3db7b314	0.08969703
119	0x3c163b32	0.009169387
120	0x3d8f6057	0.07000797
121	0x3d28823c	0.041139826
122	0x3d76a13d	0.060212363
123	0xbd8bed39	-0.06832356
124	0xbc155042	-0.009113373
125	0xbce82130	-0.028336138
126	0xbd967e1d	-0.07348273
127	0xbd28e7a9	-0.041236553
128	0x3d231257	0.039812412
129	0xbe1c0c67	-0.15239106
130	0xbc7817a6	-0.015142357
131	0x3d49b9c8	0.04924944
132	0xbe2924fe	-0.16518018
133	0xbd5bbe65	-0.05364837
134	0x3db7344f	0.08945524
135	0x3d03e0f0	0.03219694
136	0xbbd441a7	-0.006477553
137	0x3df2def7	0.118589334
138	0x3e3eef3a	0.18645945
139	0x3df5df77	0.12005513
140	0x3e5034cc	0.2033264
141	0x3e895e18	0.268296
142	0x3e060b12	0.1309016
143	0x3da2fcb1	0.07958353
144	0xbe193af5	-0.14963897
145	0xbd1242ec	-0.035708353
146	0xbd03b1f1	-0.03215212
147	0xbd08ca0a	-0.033395804
148	0x3d9fbd4c	0.077997774
149	0x3d9aa5bc	0.075511426
150	0xbd51c6c5	-0.051214952
151	0x3d36abd3	0.044597458
152	0x3ce34b30	0.027745813
153	0x3e4515c9	0.19246592
154	0x3e060391	0.13087298
155	0xbc6022f3	-0.013680208
156	0x3de7070d	0.11280642
157	0x3e03c179	0.12866773
158	0x3cbb739c	0.022882275
159	0x3d95aeb0	0.073087096
160	0x3d026415	0.031833727
161	0x3d5a2af8	0.053263634
162	0xbd1b42f5	-0.037905652
163	0xbd77677c	-0.060401425
164	0x3c394db7	0.011310033
165	0xbd953e4a	-0.07287271
166	0xbddcfad0	-0.10790026
167	0xbdb88772	-0.09010209
168	0xbb90287b	-0.004399357
169	0x3b1ed7eb	0.0024237584
170	0xbd82df68	-0.063902676
171	0xbe2f58ea	-0.17123762
172	0xbd1dad61	-0.038495425
173	0xbe07d33b	-0.13264172
174	0xbcd30df2	-0.025763486
175	0x3df18877	0.11793607
176	0x3d55d617	0.052206125
177	0xbe09ed47	-0.1346942
178	0x3dc4571a	0.09586926
179	0xbd87200d	-0.0659791
180	0x3d382976	0.044961415
181	0x3d9f7e0f	0.07787716
182	0x3e07c337	0.13258062
183	0x3c94a3a2	0.018144432
184	0x3d665714	0.056235388
185	0x3de075e2	0.10959984
186	0xbdcacb78	-0.0990209
187	0x3d3f5450	0.046711266
188	0xbb9077ca	-0.004408811
189	0x3c2ccd9b	0.010547067
190	0xbe0ca8c8	-0.1373626
191	0xbd2a1823	-0.041526925
192	0x3cfe9b5a	0.031079937
193	0xbdca8656	-0.09888904
194	0x3ccdd55a	0.025126148
195	0xbd80c792	-0.06288065
196	0xbe422c0c	-0.18962115
197	0xbd486b77	-0.04893061
198	0xbde43282	-0.11142446
199	0xbe1b49fd	-0.15164943
200	0xbd803e32	-0.06261863
201	0x3d11a1e9	0.0355548
202	0xb9d32a54	-0.00040276593
203	0xbad15709	-0.0015971373
204	0xbde5e1d5	-0.11224715
205	0xbd786c08	-0.0606499
206	0xbd89622f	-0.0670818
207	0xbd443b6e	-0.04790824
208	0x3ce426fc	0.02785062
209	0xbda582ef	-0.08081614
210	0x3d31f393	0.04344518
211	0x3dc5925d	0.09647057
212	0x3dcc47bb	0.09974619
213	0xbe1b79b5	-0.15183146
214	0xbda0fa12	-0.07860197
215	0xbd97a95a	-0.07405348
216	0xbe1a0188	-0.15039647
217	0xbdad6de7	-0.08468228
218	0xbe247952	-0.16061905
219	0xbcafc6be	-0.021457072
220	0x3d839d40	0.064264774
221	0xbcbe3359	-0.023217844
222	0xbdf9f6c9	-0.12205274
223	0xbd626d04	-0.055279747
224	0xbe135946	-0.14389524
225	0xbe232a09	-0.15934004
226	0xbdd736ef	-0.105085246
227	0xbdaae319	-0.08344097
228	0xbd596c7f	-0.053081986
229	0xbe413c5e	-0.18870685
230	0xbde3bedb	-0.11120387
231	0xbd295999	-0.041345213
232	0xbe26e597	-0.16298519
233	0xbe12aed3	-0.14324503
234	0xbe36a3dd	-0.17835946
235	0xbd122dc4	-0.035688177
236	0xbcafe4a6	-0.021471333
237	0xbda16fd3	-0.07882657
238	0x3e2212cd	0.15827484
239	0xbc60ecb5	-0.01372831
240	0xbc005701	-0.007833243
241	0x3e5b93e2	0.21443132
242	0xbced9281	-0.029000523
243	0xbd9f13b6	-0.077674314
244	0xbe6f1f4e	-0.23351786
245	0xbe7eec80	-0.24894905
246	0x3e06459c	0.13112491
247	0x3d29ad7a	0.041425206
248	0xbd2cd972	-0.04219956
249	0xbda1725d	-0.07883141
250	0xbe1a309f	-0.1505761
251	0xbe1d135c	-0.15339416
252	0x3ac1f0e2	0.001479652
253	0xbd454f4a	-0.04817132
254	0xbcbe6d9c	-0.023245625
255	0x3de43106	0.11142163

layer1.1.bn1.weight f4 [16]
0	0x3f0c5e29	0.54831177
1	0x3f0bd4f4	0.54621816
2	0x3f1faec2	0.62376034
3	0x3f3931c1	0.72341543
4	0x3f08fca9	0.5351053
5	0x3ef34ca4	0.4751941
6	0x3f285b99	0.65764767
7	0x3f47ae89	0.78000695
8	0x3f255cdd	0.64594823
9	0x3f0f17ca	0.55895674
10	0x3f11c93a	0.5694767
11	0x3eedea5a	0.4646786
12	0x3f54190b	0.8285071
13	0x3f463b74	0.7743447
14	0x3f11d9bf	0.5697288
15	0x3f2cb772	0.67467415

layer1.1.bn1.bias f4 [16]
0	0xbe5315fe	-0.20613858
1	0xbe40910f	-0.18805335
2	0xbe47e987	-0.19522677
3	0xbe9c929d	-0.30580607
4	0xbe891734	-0.26775515
5	0xbe20f543	-0.1571856
6	0xbe8988fe	-0.2686233
7	0xbe80ec73	-0.25180396
8	0xbe962928	-0.29328275
9	0xbce8d068	-0.028419688
10	0xbd938778	-0.07203573
11	0xbdb31158	-0.087435424
12	0xbdaa25c3	-0.08307984
13	0xbe1f8c4d	-0.15580864
14	0xbdc00ebe	-0.09377812
15	0xbe21f531	-0.1581619

layer1.1.conv2.weight f4 [16, 16, 3, 3]
0	0x3c37f0b0	0.011226818
1	0x3e52356e	0.20528194
2	0x3e5b6930	0.21426845
3	0x3d45beff	0.04827785
4	0xbcf6f6c7	-0.03014697
5	0x3c9acf9d	0.018897826
6	0xbdb73644	-0.08945897
7	0xbe0b489b	-0.13601916
8	0xbcca0a52	-0.024663124
9	0xbe0407ba	-0.12893572
10	0xbaa0a063	-0.001225483
11	0x3e3bbb39	0.18333139
12	0xbe3b4070	-0.182863
13	0xbdba7162	-0.09103657
14	0xbd1fcf98	-0.039016336
15	0xbe0e6db9	-0.13909043
16	0xbe105887	-0.1409627
17	0x3af3a072	0.0018587245
18	0xbe0133a4	-0.12617356
19	0x3d75a3f5	0.059970815
20	0x3d324c63	0.04352988
21	0x3e3f2262	0.1866546
22	0x3d19c9f0	0.0375461
23	0xbccb67f8	-0.02482985
24	0x3e411b72	0.18858126
25	0x3e036272	0.12830523
26	0x3dfdee07	0.12398916
27	0xbd099c07	-0.033596065
28	0xbc07c6eb	-0.008287172
29	0xbcc10128	-0.023560122
30	0x3cc87f65	0.024474809
31	0x3dcca108	0.09991652
32	0x3e7325b4	0.23744851
33	0xbd678a5b	-0.05652843
34	0x3dba5b4d	0.090994455
35	0x3e98046e	0.2969088
36	0x3d94b856	0.07261722
37	0x3c0340a2	0.008011015
38	0x3d3d5a93	0.046228956
39	0xbe280dea	-0.16411558
40	0xbe5451a0	-0.20734262
41	0xbe0a2659	-0.13491191
42	0xbdf2b883	-0.11851599
43	0xbe0a4114	-0.13501388
44	0xbdb13a70	-0.08653724
45	0xbd43a49d	-0.04776441
46	0x3c8876b9	0.016658174
47	0x3db6636e	0.089056835
48	0xbe145e08	-0.14488995
49	0xbdc5faef	-0.096670024
50	0xbdb55dab	-0.08855756
51	0x3ddb3b76	0.10704701
52	0x3e1c21b3	0.1524723
53	0x3e17123a	0.14753047
54	0xbdab18bb	-0.08354326
55	0xbc9ced9c	-0.01915627
56	0xbdd46316	-0.10370462
57	0x3d7674ee	0.060170107
58	0xbce6613b	-0.028122535
59	0xbdefda97	-0.117116146
60	0x3d469c5d	0.048488963
61	0xbd8d578c	-0.06901464
62	0xbe011910	-0.12607217
63	0xbdfc1d39	-0.12310261
64	0xbd26000c	-0.04052739
65	0x3d9d0cbe	0.07668446
66	0xbdbe947f	-0.09305667
67	0xbd9d27f3	-0.07673635
68	0x3b79009d	0.003799475
69	0x3e6378dd	0.22214074
70	0xbda31461	-0.07962871
71	0x3d32012f	0.04345816
72	0x3dda161e	0.1064875
73	0x3dac0206	0.083988234
74	0x3df823a6	0.121161744
75	0x3e782790	0.24233842
76	0x3da3d98d	0.08000479
77	0x3e5c7533	0.21529083
78	0x3dbd83e4	0.09253672
79	0xbdd044f0	-0.10169399
80	0x3e1019c6	0.14072332
81	0x3e025380	0.12727165
82	0x3d1ce0af	0.038300212
83	0x3e86080f	0.26178023
84	0x3d2a6170	0.04159683
85	0xbe19ba4e	-0.15012476
86	0x3e576380	0.2103405
87	0xbde26215	-0.11053864
88	0xbd783a9d	-0.060602773
89	0x3d8174a7	0.06321078
90	0x3d5fb1e2	0.054613
91	0xbe197026	-0.14984187
92	0xbe6ca2c6	-0.23108968
93	0x3dd5c851	0.10438598
94	0x3dba072b	0.090833984
95	0xbde5fe39	-0.1123013
96	0x3e199754	0.14999133
97	0x3dc9a0e5	0.09845141
98	0xbe1d5536	-0.15364537
99	0xbdcba4aa	-0.099435166
100	0xbd936571	-0.07197083
101	0xbde1c1d7	-0.110233
102	0xbdd94ebe	-0.10610722
103	0x3d047816	0.032341085
104	0x3c2241d0	0.009903386
105	0x3e494e19	0.19658698
106	0x3e26e021	0.16296436
107	0x3e66cbc6	0.22538671
108	0x3e623bc6	0.22093114
109	0xbc14f1c4	-0.009090845
110	0x3eb01729	0.3439267
111	0x3eb0a483	0.34500512
112	0x3e6ed6fa	0.23324195
113	0x3e48dfe1	0.19616653
114	0x3e5898a0	0.21151972
115	0x3e1d7420	0.1537633
116	0x3e71590a	0.23569122
117	0x3ce0dad2	0.027448092
118	0xbc3714f2	-0.011174427
119	0xbe217890	-0.15768647
120	0xbd06cc83	-0.03290988
121	0xbe94d3c6	-0.2906782
122	0xbd381267	-0.044939425
123	0xbd75b639	-0.059988234
124	0xbd1c847d	-0.03821229
125	0xbc91ec02	-0.017812733
126	0x3d41952f	0.047261413
127	0xbe489b56	-0.19590506
128	0xbdf28803	-0.118423484
129	0x3e3f35c7	0.18672858
130	0xbd9ac0ae	-0.07556282
131	0x3bb9904c	0.0056629535
132	0x3e0264f5	0.12733825
133	0xbc49a2a2	-0.012306841
134	0x3db0e3b9	0.08637185
135	0xbe306384	-0.17225462
136	0xbd5c33a6	-0.053760193
137	0x3d5f6cb4	0.054547027
138	0xbda50750	-0.080580354
139	0xbc99a635	-0.018756012
140	0x3e31ec2a	0.17375246
141	0xbe6b91ff	-0.23004912
142	0xbb5f58a3	-0.0034079931
143	0x3e29bcce	0.1657593
144	0x3e8200bc	0.25391185
145	0x3e0e713f	0.13910387
146	0x3c3edbc8	0.01164908
147	0x3d658c84	0.05604221
148	0x3e165312	0.14680126
149	0x3e1ed876	0.15512261
150	0x3b1a5a18	0.0023552235
151	0x3d360f84	0.04444839
152	0xbd44eb4a	-0.04807595
153	0xba00d177	-0.0004914025
154	0x3d5c4205	0.0537739
155	0x3d8805bf	0.06641721
156	0x3b4ac388	0.00309393
157	0x3dad31c4	0.08456758
158	0x3dfdcbed	0.123924114
159	0xbd97c08a	-0.07409771
160	0x3c868afc	0.016423695
161	0x3da21b38	0.07915348
162	0x3d385878	0.045006245
163	0x3c4e80b9	0.012603932
164	0xbdfd6241	-0.12372256
165	0x3e06b1af	0.13153718
166	0x3b0f0a78	0.0021826308
167	0x3d7be2a6	0.061495446
168	0x3d226839	0.039650176
169	0x3d35a8a6	0.04435029
170	0x3e18cc50	0.14921689
171	0x3bbdd514	0.005793223
172	0x3d29258a	0.041295566
173	0x3e2e747d	0.17036624
174	0x3e222069	0.15832676
175	0x3e0619d4	0.1309579
176	0x3ea3a8b0	0.31964636
177	0xbcb2817f	-0.021790264
178	0x3cc46ade	0.02397674
179	0xbdcf8e58	-0.10134572
180	0x3dde730a	0.10861786
181	0x3d293f0e	0.0413199
182	0xbd8c350d	-0.06846056
183	0x3df7fc40	0.1210866
184	0x3c453bf4	0.01203822
185	0xbda97b06	-0.08275418
186	0x3e81515d	0.25257388
187	0x3d3849de	0.04499232
188	0xbd6f7edc	-0.058470592
189	0x3e380920	0.17972231
190	0x3e364d7f	0.17803
191	0x3e51fea6	0.20507297
192	0x3e7c8f35	0.24664004
193	0x3e66d8cd	0.2254364
194	0x3df5d789	0.12004001
195	0x3e33c4cb	0.1755554
196	0x3e16e853	0.14737062
197	0x3dcf7c04	0.10131076
198	0x3d2f7c44	0.04284312
199	0x3d02382c	0.03179185
200	0x3da231d8	0.07919663
201	0x3e471de3	0.19444995
202	0x3d97989b	0.07402154
203	0x3e2e2274	0.1700533
204	0xbd550940	-0.052010775
205	0x3d92f7ef	0.07176196
206	0x3e311d95	0.17296441
207	0xbe618d54	-0.22026569
208	0x3d1f6e5e	0.038923614
209	0x3d172ef6	0.03691002
210	0xbd8a4c0d	-0.06752787
211	0x3d25bc9d	0.04046308
212	0x3dced3c6	0.10098986
213	0x3b233c16	0.002490764
214	0xbdf005f3	-0.11719885
215	0xbdb5f19b	-0.08883973
216	0xbc8f0d82	-0.017462496
217	0x3b367fde	0.002784721
218	0x3d148816	0.036262594
219	0x3e087b2e	0.1332824
220	0x3ce1361b	0.02749162
221	0x3d2452af	0.040117916
222	0x3d40c3ac	0.047061607
223	0xbe19e77f	-0.15029715
224	0xbe1ce67a	-0.15322295
225	0x3dbbf565	0.09177665
226	0xbd5fe08d	-0.054657508
227	0xbb55ae16	-0.0032604984
228	0x3dce794e	0.10081731
229	0x3d8048dd	0.062638976
230	0x3d3b44e8	0.04572001
231	0x3e49b68d	0.19698544
232	0x3d5bf9bc	0.053704962
233	0x3d45ce04	0.048292175
234	0x3d16ec4c	0.036846444
235	0x3c86c651	0.016451987
236	0x3b7aaa34	0.0038248422
237	0x3e65543d	0.22395416
238	0x3d0e461c	0.03473483
239	0x3d730551	0.059331242
240	0x3d039c05	0.032131214
241	0x3ca5b422	0.020227496
242	0xbd236d65	-0.03989925
243	0x3c8fb1a9	0.01754077
244	0x3e0ae9cc	0.13565749
245	0x3ec17a79	0.37788752
246	0xbd94c229	-0.072635956
247	0x3bd5c8bc	0.0065241735
248	0xbcee89ce	-0.029118445
249	0xbe117d77	-0.14208017
250	0x3d9bb4a3	0.07602813
251	0xbce5c989	-0.028050201
252	0x3dd0d0f8	0.101961076
253	0x3e24e468	0.16102755
254	0x3e568970	0.20950866
255	0x3e81b3c5	0.25332466

layer1.1.bn2.weight f4 [16]
0	0x3f170f45	0.59007674
1	0x3ee0c881	0.43902972
2	0x3f244c0b	0.6417853
3	0x3e7bed52	0.2460225
4	0x3f4fe14d	0.81203157
5	0x3f55d642	0.83530056
6	0x3f0dee92	0.55442154
7	0x3ed92647	0.42412016
8	0x3efb2401	0.49050906
9	0x3f08b41a	0.53399813
10	0x3ee9c874	0.45660746
11	0x3f3078c9	0.68934304
12	0x3f1d0162	0.61330235
13	0x3f1a14f3	0.60188216
14	0x3ee2f47f	0.4432716
15	0x3f4328c4	0.7623408

layer1.1.bn2.bias f4 [16]
0	0x3d856589	0.06513507
1	0xbc5f5fba	-0.013633663
2	0xbdec6521	-0.11542726
3	0xbd995009	-0.074859686
4	0xbeedc792	-0.46441323
5	0xbea7ff81	-0.32812122
6	0xbde2e6ad	-0.11079154
7	0x3d565239	0.052324507
8	0xbea604dc	-0.32425582
9	0xbd419cb2	-0.047268577
10	0x3dd049d4	0.101703316
11	0x3d374989	0.044747863
12	0xbe4a3083	-0.19745068
13	0x3cb1777b	0.021663418
14	0xbe41395a	-0.18869534
15	0x3dd0cf22	0.101957574

layer2.0.conv1.weight f4 [32, 16, 3, 3]
0	0x3d01ea62	0.031717665
1	0xbe55b8c8	-0.2087127
2	0x3d17362a	0.03691689
3	0x3dc09e4c	0.09405193
4	0x3d92053f	0.07129907
5	0x3dcffc20	0.10155511
6	0x3e729129	0.23688187
7	0x3e43a243	0.19104867
8	0x3d07ca18	0.033151716
9	0xbe4f3ce1	-0.20238067
10	0xbd149e87	-0.036283996
11	0xbcf2b3aa	-0.029626686
12	0x3e3c9bea	0.18418851
13	0x3dfd9484	0.12381843
14	0xbd8455c1	-0.06461669
15	0x3e0a3f64	0.13500744
16	0x3d84ce74	0.0648469
17	0xbd1ceda1	-0.038312558
18	0x3e629ce3	0.2213016
19	0xbbcbf4d5	-0.0062242546
20	0xbdabcd0e	-0.083887205
21	0x3dce27e3	0.100662015
22	0x3cf73bc2	0.030179862
23	0xbc161588	-0.009160407
24	0x3db0eade	0.08638547
25	0xbcf52e6c	-0.029929362
26	0xbb901531	-0.0043970575
27	0x3e2891e0	0.16461897
28	0xbc13cdc9	-0.009021231
29	0x3e09b270	0.13446975
30	0x3e052d85	0.13005646
31	0x3e01a472	0.12660387
32	0x3e7a5132	0.24445036
33	0x3cbca01e	0.023025569
34	0xbdff18b3	-0.12455883
35	0x3e5a0c2c	0.21293706
36	0x3db14624	0.086559564
37	0xbd92cc6e	-0.07167898
38	0xbdbdb769	-0.09263498
39	0x3e02c001	0.12768556
40	0x3df5cfba	0.12002511
41	0x3d2cf34c	0.042224213
42	0x3d19a4e2	0.03751076
43	0x3dcab884	0.09898475
44	0x3eb3ff8e	0.3515591
45	0x3d044ca7	0.032299664
46	0x3df8ac04	0.121421844
47	0x3de28587	0.110606246
48	0x3ea6b9c1	0.32563594
49	0x3e7b4c6a	0.24540868
50	0x3dd3857f	0.10328197
51	0x3bbb70f1	0.005720251
52	0x3d3b548b	0.045734923
53	0xbca20f91	-0.019782813
54	0xbdf21cd8	-0.11821908
55	0xbe8454ed	-0.25846043
56	0x3d188cb2	0.037243553
57	0x3d24c621	0.040228013
58	0x3e13cf44	0.14434534
59	0x3e8eafec	0.27868593
60	0xbd583dfd	-0.05279349
61	0x3cee05bc	0.029055469
62	0x3c512c1d	0.012766865
63	0x3dcb3c2d	0.09923587
64	0xbbcd9edd	-0.0062750415
65	0xbe6e0343	-0.23243432
66	0x3c02e26d	0.007988554
67	0x3de9deac	0.114194244
68	0x3e21a624	0.15786034
69	0x3d9dc6c5	0.07703928
70	0xbcaca501	-0.021074774
71	0xb9140264	-0.0001411527
72	0x3e4076f4	0.18795377
73	0x3db37b2b	0.08763727
74	0x3c2f329e	0.01069322
75	0x3e4c9a82	0.19980815
76	0x3e29e67e	0.16591832
77	0x3db09d98	0.086238086
78	0x3e571576	0.2100428
79	0x3e4e8438	0.20167625
80	0x3e218c08	0.15776074
81	0x3e0139d7	0.1261972
82	0xbd02be5c	-0.031919822
83	0xbc578554	-0.0131543465
84	0xbe01b52f	-0.12666772
85	0xbdad4aeb	-0.08461555
86	0xbe1d9292	-0.15387943
87	0xbe0fb286	-0.14032945
88	0xbd9b68d2	-0.07588352
89	0xbea5d5ee	-0.32389778
90	0xbe23b8a5	-0.15988405
91	0xbe1b0408	-0.15138257
92	0x3d802e46	0.06258826
93	0xbca1236e	-0.019670215
94	0xbca1af0b	-0.019736787
95	0x3de9313b	0.11386343
96	0x3bef0c66	0.007295179
97	0xbd4033c2	-0.04692436
98	0xbcba8d32	-0.022772405
99	0xbeb29e8f	-0.34886596
100	0xbdde8042	-0.10864307
101	0xbe01f38c	-0.12690562
102	0xbe9bd831	-0.30438378
103	0xbddc7776	-0.10764973
104	0xbe0afc69	-0.1357285
105	0xbea55c0c	-0.3229679
106	0xbe3d618a	-0.1849424
107	0xbe803af5	-0.2504498
108	0x3ccb2d2f	0.024801819
109	0xbdf452e0	-0.1192987
110	0xbe0b63f1	-0.13612343
111	0xbda58a6d	-0.08083043
112	0xbe589c27	-0.21153317
113	0xbe700272	-0.23438433
114	0xbd0e3cf0	-0.034726083
115	0xbe0e2d99	-0.13884582
116	0xbe5a363b	-0.2130975
117	0x3d9f0484	0.07764533
118	0xbd0f269f	-0.03494894
119	0xbda9dea7	-0.08294421
120	0xbd4b8e2b	-0.04969613
121	0x3debdad0	0.115163445
122	0xbd1a6513	-0.037694048
123	0xbdeef939	-0.11668629
124	0xbce8aede	-0.028403696
125	0xbe0b0e67	-0.13579713
126	0xbd749179	-0.059709046
127	0xbd7a24f9	-0.061070416
128	0xbe15a4f4	-0.14613706
129	0x3dc6a0ee	0.09698664
130	0x3dd1b363	0.102392934
131	0x3dc97dce	0.098384485
132	0x3e2fb532	0.17158964
133	0x3d981d86	0.07427506
134	0x3cf54ccd	0.029943848
135	0xbd4bb93f	-0.04973721
136	0x3dcf65e1	0.10126854
137	0xbd97fd42	-0.07421352
138	0x3d8ac5f5	0.067760386
139	0x3dc5516c	0.096346706
140	0xbe5cd637	-0.21566091
141	0x3d9da41d	0.07697318
142	0x3994a80e	0.0002835397
143	0xbe7562b5	-0.23963435
144	0xbd9df530	-0.077127814
145	0xbdeeb4d7	-0.11655586
146	0x3c5f9667	0.013646699
147	0xbdd6e1aa	-0.10492261
148	0x3c38abc2	0.011271419
149	0x3d93924c	0.07205638
150	0xbdb07d0e	-0.08617602
151	0xbdbc91f6	-0.09207527
152	0xbd4ac6ac	-0.049505875
153	0xbb90a1e0	-0.0044138283
154	0xbcfb04cc	-0.030641936
155	0xbe071629	-0.13192047
156	0x3e14819d	0.14502569
157	0x3deed43f	0.116615765
158	0xbbb89f8d	-0.0056342543
159	0x3e1fe6a4	0.15615326
160	0xbd769f53	-0.060210537
161	0xbda10fed	-0.07864366
162	0x3db6fcbb	0.08934923
163	0xbbef0261	-0.0072939848
164	0xbe17eb04	-0.14835745
165	0x3cf74b68	0.030187324
166	0x3d158429	0.03650299
167	0xba914e3b	-0.0011085937
168	0x3b42e180	0.002973646
169	0xbc1dc860	-0.009630293
170	0xbded304c	-0.115814775
171	0xbdbafd7d	-0.0913038
172	0xbe5428d3	-0.20718698
173	0xbe259eb3	-0.1617382
174	0xbde9383a	-0.113876775
175	0xbda501f6	-0.08057015
176	0xbe0be2ab	-0.13660686
177	0xbe391b38	-0.1807679
178	0xbe1eac23	-0.15495352
179	0xbd9c7a79	-0.07640547
180	0x3c14715a	0.009060228
181	0xbd0a7072	-0.033798642
182	0x3d39fc10	0.0454064
183	0x3b0abb97	0.0021168941
184	0x3de47c88	0.11156565
185	0x3df9df3f	0.12200784
186	0xbbb3dadf	-0.005488738
187	0x3d655d7c	0.055997357
188	0x3e012800	0.12612915
189	0x3de5f8bb	0.11229082
190	0x3b87b6b7	0.0041416544
191	0x3e2f9346	0.17146024
192	0x3ccc4384	0.024934538
193	0xbcee6db5	-0.029105047
194	0x3e4d1586	0.20027742
195	0x3c0b6eb4	0.00851028
196	0xbc6361d3	-0.013878304
197	0x3db6e75f	0.08930849
198	0xbde54068	-0.11193925
199	0x3d2292a7	0.03969064
200	0xbde61488	-0.11234385
201	0xbe16206d	-0.14660807
202	0x3e18e536	0.14931187
203	0x3e072605	0.13198097
204	0xbe05dde8	-0.13072932
205	0x3e1cfc7b	0.15330689
206	0xbd6bd634	-0.057577327
207	0xbcf5c309	-0.030000227
208	0xbdbc94fd	-0.09208105
209	0xbe0d2292	-0.13782719
210	0xbd4a97ce	-0.04946118
211	0x3d61f81e	0.055168264
212	0x3e35fe6c	0.17772835
213	0xbe37320a	-0.17890182
214	0xbe5adc9b	-0.21373217
215	0xbe21cccb	-0.15800779
216	0xbdac2bae	-0.08406769
217	0x3d5cbbed	0.053890157
218	0x3d2dcc19	0.04243097
219	0xbdfecb6c	-0.124411434
220	0xbcf5f673	-0.030024743
221	0x3df8c750	0.12147391
222	0xbe401e0c	-0.18761462
223	0x3d2362eb	0.039889257
224	0x3dc61710	0.096723676
225	0x3e1b33b8	0.15156448
226	0x3d0a079b	0.03369866
227	0xbdc828e1	-0.09773422
228	0xbdde8e08	-0.10866934
229	0xbe4579bb	-0.19284718
230	0xbd0440df	-0.03228843
231	0x3ce228c8	0.027607337
232	0xbd6d824a	-0.05798558
233	0xbddffcf1	-0.109369166
234	0xbdcf58fc	-0.10124394
235	0x3e24dc80	0.16099739
236	0xbca59412	-0.020212207
237	0xbe57b914	-0.21066695
238	0xb960cf47	-0.00021439522
239	0xbe12a7db	-0.14321844
240	0xbe8b365b	-0.27189907
241	0xbdc963e0	-0.09833503
242	0xbe97dc12	-0.29660088
243	0xbc8e5bdc	-0.017377786
244	0x3dd934d0	0.10605776
245	0xbd8e7647	-0.06956153
246	0xbd9d9023	-0.076935075
247	0xbd7ca9cd	-0.061685372
248	0xbe5b2d7d	-0.21404071
249	0xbdd060ac	-0.10174689
250	0xbdd4204f	-0.10357725
251	0xbe6b5586	-0.22981843
252	0xbba95466	-0.005167532
253	0xbda9ec95	-0.082970776
254	0xbde2efd2	-0.11080898
255	0xbe40176c	-0.18758935

layer2.0.bn1.weight f4 [32]
0	0x3f2dc5f6	0.6788019
1	0x3f13f08a	0.5778891
2	0x3f5b30f3	0.85621566
3	0x3f0d7ba3	0.5526678
4	0x3f449a2b	0.7679774
5	0x3f23e750	0.6402483
6	0x3f26e224	0.65188813
7	0x3f28d4a9	0.65949494
8	0x3f315353	0.6926777
9	0x3f3b604f	0.7319383
10	0x3f442503	0.76618975
11	0x3f4c0103	0.79689044
12	0x3f3ad3b6	0.72979295
13	0x3f248a37	0.642734
14	0x3f3803b2	0.7188064
15	0x3f3222a8	0.6958413
16	0x3f27c52d	0.6553524
17	0x3f3b8e45	0.7326396
18	0x3f259aac	0.64689136
19	0x3f3087a8	0.68956995
20	0x3f32e142	0.69874966
21	0x3f3b9032	0.732669
22	0x3f29df08	0.66355944
23	0x3f422cdb	0.75849694
24	0x3f2e0989	0.679833
25	0x3f14f6f9	0.5818935
26	0x3f363f64	0.71190476
27	0x3f3e9cf1	0.74458224
28	0x3f23eab7	0.6403002
29	0x3f2f75d1	0.6853915
30	0x3f2113a4	0.62920594
31	0x3f26cd04	0.6515658

layer2.0.bn1.bias f4 [32]
0	0xbe993818	-0.2992561
1	0xbe37f7c0	-0.17965603
2	0xbea215c9	-0.31657246
3	0xbe3296a3	-0.17440276
4	0xbe859cd6	-0.2609622
5	0xbe970bed	-0.29501286
6	0xbeb9dbac	-0.3630041
7	0xbdbd8405	-0.09253696
8	0xbe722d38	-0.23650062
9	0xbe6a3893	-0.22873144
10	0xbe98894f	-0.29792258
11	0xbeab60e7	-0.33472368
12	0xbf02d344	-0.51103616
13	0xbe8bde71	-0.27318147
14	0xbea39853	-0.31952152
15	0xbe802aa2	-0.25032526
16	0xbd4d210d	-0.050080348
17	0xbe5efb11	-0.21775462
18	0xbea04ba9	-0.31307724
19	0xbe882d28	-0.2659695
20	0xbe6407e1	-0.2226863
21	0xbdc16ac0	-0.09444189
22	0xbdb02c49	-0.08602197
23	0xbe2091b2	-0.15680578
24	0xbe819a57	-0.25313064
25	0xbd3afc7d	-0.045650948
26	0xbe331079	-0.17486753
27	0xbdd01a2a	-0.101612404
28	0xbec23f55	-0.37938944
29	0xbe0db824	-0.13839775
30	0xbe287274	-0.1644991
31	0xbd5fc798	-0.054633707
